models/Stage1/CNN_Group_100_600.pt (torch, 11177 bytes, 5 tensors)

embedding.weight f4 [24, 16]
000000 00 00 00 00 00 00 00 00 00 00 00 00 00 00 00 00
       0.0 0.0 0.0 0.0
000010 00 00 00 00 00 00 00 00 00 00 00 00 00 00 00 00
       0.0 0.0 0.0 0.0
000020 00 00 00 00 00 00 00 00 00 00 00 00 00 00 00 00
       0.0 0.0 0.0 0.0
000030 00 00 00 00 00 00 00 00 00 00 00 00 00 00 00 00
       0.0 0.0 0.0 0.0
000040 1a e0 33 be bc d9 a6 3f ac 92 9d bf 11 32 19 3f
       -0.17565957 1.3035197 -1.2310386 0.5984202
000050 43 8b d4 3f cb b4 ca bd 76 78 7e 3f df 54 84 bd
       1.6604999 -0.09897765 0.9940256 -0.064615004
000060 f0 7e 25 3f e8 00 ac be d8 0c b4 bf 26 37 ea 3c
       0.64646816 -0.3359444 -1.406642 0.02859075
000070 96 2e 43 3f f9 3b 41 3f 6f 39 a8 3d 05 64 b1 3f
       0.7624296 0.75482136 0.082140796 1.3858649
000080 d1 bd f3 3e 34 94 03 bf e0 ca 66 3f d3 3f 71 be
       0.47605756 -0.51398015 0.9015331 -0.23559503
000090 73 a5 d1 bf 92 12 c4 bf b2 a3 04 3f d7 d6 12 be
       -1.6378616 -1.5318167 0.5181228 -0.14339767
0000a0 c1 d6 f8 3d d3 a2 c1 3f 19 28 45 bf 5f f9 88 3f
       0.12150336 1.5127815 -0.7701431 1.0701102
0000b0 ea ff 78 3e 4d 17 10 3d ef 7f 95 bf a4 21 8b 3e
       0.24316373 0.03517847 -1.1679667 0.27174103
0000c0 5f 86 50 bf b4 b9 e1 bd 0a 0f 0a bf 05 9b a6 3f
       -0.81455034 -0.11021748 -0.539292 1.3016058
0000d0 34 e0 20 3f 23 74 e2 3e 1d 79 85 bf 63 b2 ad 3f
       0.62842107 0.4422923 -1.0427586 1.3570064
0000e0 99 dd 0a bf 87 c4 83 3f 7c aa e9 3e 91 87 5c 3d
       -0.5424438 1.029435 0.45637882 0.053840224
0000f0 b3 2e 66 3f 9e 8b a8 be 94 75 89 bf fb dd 81 be
       0.8991501 -0.3291902 -1.0739007 -0.2536467
000100 66 3f 51 bf e5 a4 90 bd 1e 56 c2 bf 4e 1a 49 be
       -0.81737363 -0.07062701 -1.5182531 -0.1963894
000110 6e 11 8f 3f 6d bf 99 bf 9e 92 d5 bf 81 9f 2a bf
       1.1177194 -1.2011544 -1.6685369 -0.66649634
000120 94 bd 91 3f 14 81 a6 3e b1 28 16 bf 05 75 06 c0
       1.138598 0.32520354 -0.5865584 -2.1008923
000130 fb f8 4d 3f 77 10 a8 3d e5 4a 35 bf 1e a2 6c 3e
       0.8045804 0.082062654 -0.70817405 0.23108718
000140 34 10 c1 3f 2a c0 c5 3f 4e af 8f bf a0 3f c1 bd
       1.508307 1.5449269 -1.1225374 -0.09435964
000150 11 27 e2 bf 33 f4 d9 3e 40 8a 97 3e ef de 37 3f
       -1.7668172 0.42569122 0.29597664 0.71824545
000160 e4 99 2a 40 b2 e9 6e 3d b0 2e b5 3e 63 6a 14 3e
       2.6656427 0.058328338 0.35387182 0.14493708
000170 72 39 36 3f 27 ff 9d bf c9 15 3c 3f 69 86 a8 3e
       0.71181405 -1.2343491 0.7347074 0.32915047
000180 d6 45 f2 3e 36 39 84 be f9 10 97 3f 26 fc 27 3e
       0.47318906 -0.25824898 1.1802055 0.16404781
000190 d2 c5 2f bf 9d 08 aa 3f 07 7a 8c bf 66 b6 a8 bc
       -0.68661225 1.3283879 -1.097474 -0.020594787
0001a0 47 43 d2 3f b8 19 35 bf e8 41 8d bf f0 7c b6 bc
       1.6426781 -0.7074237 -1.1035738 -0.022276372
0001b0 1a 65 57 bd eb 3c 7e be 88 a9 7e be 19 bf 43 3e
       -0.052586652 -0.24827926 -0.24869359 0.19115867
0001c0 22 e3 9c bf c5 3c c8 3f 51 4e 06 3e 66 00 86 bd
       -1.2256815 1.5643545 0.13115813 -0.06543045
0001d0 de 42 ab bf 89 c1 af 3f 1e 5e f4 be 8e c2 f1 be
       -1.3379781 1.3730937 -0.47728056 -0.47218746
0001e0 c8 38 81 bd ef 06 f6 3e 2d 5d 47 bf 39 da ac 3d
       -0.06309658 0.48052165 -0.7787655 0.0844006
0001f0 67 ea bd 3f b7 72 00 40 d1 f7 72 be 4a 58 9a bf
       1.4837159 2.0070016 -0.23727347 -1.2058194
000200 1d 19 fa bf b2 85 7b bf 05 b6 ba bf e6 e6 8a 3f
       -1.9538914 -0.9825088 -1.4586798 1.0851715
000210 1e a5 52 bf 43 38 0a bf 19 d8 10 be e8 cd 08 bf
       -0.822832 -0.539921 -0.14144935 -0.5343919
000220 85 2c a4 3e ff 21 93 be 22 fd 2e 3f 37 5d ca 3f
       0.32065216 -0.28736874 0.68355 1.5809697
000230 d8 11 59 3f b1 c2 91 3f c6 26 e3 3e 08 75 0f 3e
       0.8479285 1.138754 0.4436552 0.14009488
000240 63 1f 53 bf 47 0c 52 3e a1 0a ce 3e f0 7a 44 3f
       -0.8246977 0.20512496 0.40242484 0.7675009
000250 83 a6 39 bf 8b d8 e5 be 26 bc a5 be a7 20 a2 be
       -0.725197 -0.44891772 -0.32370108 -0.31665537
000260 ba ec 89 be 47 6a 3e c0 17 b9 af bc dd 1c dc bf
       -0.2693842 -2.9752367 -0.021450562 -1.7196308
000270 b1 77 f7 3f 95 b7 ee 3e 1e ec 18 bb c2 b8 5d bf
       1.9333402 0.46624437 -0.0023334096 -0.86610043
000280 b3 af 1d bf 75 f8 ad 3f 0a 09 7c 3f e3 9e 74 be
       -0.6159622 1.3591448 0.9845129 -0.23888735
000290 c6 da 15 3f eb 4c f4 be d4 fc 79 3f 0e 7b 40 3e
       0.58536947 -0.47714934 0.9765141 0.18796942
0002a0 7a a4 1e 3f 6b 83 c7 be 7f a3 98 bc b3 92 09 3e
       0.6196972 -0.3896745 -0.018632649 0.13434868
0002b0 df 64 24 bf 74 06 cf 3f c9 64 ab bf 1a 63 48 bf
       -0.6421642 1.6173844 -1.3390132 -0.78276217
0002c0 d3 fe 89 3e 20 38 c7 bc 69 a5 a3 bf e8 9e a2 bf
       0.26952228 -0.024318755 -1.2784854 -1.2704744
0002d0 12 f4 51 3c 0b bc 54 3e 7a c3 34 be ca a0 40 3e
       0.012814539 0.20774858 -0.17652693 0.18811336
0002e0 d6 65 46 bf f4 55 bb bf ed c1 d9 be 4d 85 cd 3f
       -0.7749914 -1.4635606 -0.42530766 1.6056305
0002f0 06 15 13 bc f3 f3 f0 3e 2a d3 2b bf 2c 50 5f be
       -0.00897718 0.47061118 -0.67119086 -0.21807927
000300 ab 2a 2a bf 32 0c be be fe 79 c8 3d 8e 9a 46 bf
       -0.66471356 -0.3711868 0.09788893 -0.7757958
000310 5c 04 7f 3e 51 fb b1 3e 81 bc fc 3e e2 a4 f4 bf
       0.24904007 0.34762052 0.49362567 -1.9112818
000320 8d ad 93 be 05 8b 87 3e 6a bf 24 bf 1e 64 21 3e
       -0.28843346 0.2647325 -0.64354575 0.15760848
000330 e1 3b 0c 3d c2 db 5b bf 69 fb 2a 3f aa de d5 bf
       0.034236792 -0.858822 0.6678987 -1.6708577
000340 c4 c0 de 3d 34 b2 65 3e f1 97 85 be 13 31 9e be
       0.10876611 0.2243126 -0.26092485 -0.30896816
000350 61 33 7b 3e 98 93 88 bf 30 f8 71 be 3f 04 0e 3f
       0.24531318 -1.0670042 -0.23629832 0.5547523
000360 75 6e 92 3f a7 5e 0d bf b8 45 89 bf b4 49 93 3f
       1.1439959 -0.55222553 -1.0724401 1.1506867
000370 fb 80 28 40 9d 0c 33 bf 77 a5 15 bf c1 ae d4 3c
       2.6328723 -0.6994112 -0.58455604 0.025962235
000380 5b a6 e7 be 26 79 28 bf 21 56 b3 be 65 f4 22 3f
       -0.45244107 -0.6580986 -0.3502665 0.63654166
000390 d9 10 d2 3e de 07 28 3f f9 32 4c 40 af 70 02 be
       0.4102848 0.65637004 3.1906111 -0.12738298
0003a0 d1 f9 78 3e c3 53 d0 be 0a 9c 03 3f 15 19 9a 3d
       0.24314047 -0.40688905 0.5140997 0.07524315
0003b0 9f a7 fb 3e 6e df d6 be e8 52 97 bf c5 bf 0c 3e
       0.49151322 -0.41967338 -1.1822176 0.1374503
0003c0 8e 6a f4 3f ed 7c bd be d5 f6 b4 be b1 5d c4 be
       1.9095018 -0.37009373 -0.35344568 -0.3835273
0003d0 c8 48 ab 3e 65 2f 55 3e 7b 12 67 3d 92 2a 59 be
       0.33453965 0.20818861 0.05641411 -0.21207646
0003e0 49 c4 05 bf 8d 25 f6 3d 0f 54 37 3f 6b c6 8f be
       -0.5225263 0.12018881 0.7161264 -0.28081068
0003f0 57 9a 4b 3e d7 c2 18 40 be 5f 74 3e a9 2e 26 3f
       0.19883095 2.386892 0.23864648 0.6491495

encoder.weight f4 [32, 16, 3]
000000 fc a9 c7 be a4 b0 cc be ea ba 9d 3e 83 c7 aa be
       -0.38996875 -0.39978516 0.30806667 -0.3335534
000010 56 3e 81 3e 5a 3f 85 be 79 e6 26 3f 51 54 6e 3d
       0.2524287 -0.26024896 0.65195423 0.05818588
000020 33 f0 44 3e be eb cf 3e 4e 1f dd 3e 50 bb e1 be
       0.19232254 0.40609545 0.43187946 -0.4408822
000030 f7 14 0f 3f ce df 8a 3e a5 b0 2b be 66 7c fe 3e
       0.55891365 0.27123874 -0.16766603 0.49704283
000040 67 e0 d6 3e c2 e6 6e 3e c5 22 1e bd cb ae 19 bf
       0.4196808 0.23330215 -0.038607378 -0.6003234
000050 bf 99 8e 3d 90 b1 56 3e d5 98 fb 3e 12 70 2d be
       0.069629185 0.20966172 0.4914004 -0.16937283
000060 8d 63 30 be d8 00 80 3e e3 c2 5a 3d ed cd 0e 3e
       -0.17225476 0.25000644 0.053408515 0.13945742
000070 86 8d 44 bf b8 43 25 3f f9 e9 9e bd 0d a1 a3 be
       -0.7677845 0.64556456 -0.077594705 -0.3195881
000080 03 cc 13 3e 55 6c 97 be cd 20 9a 3d 9d c5 a7 be
       0.14433293 -0.29574838 0.075257875 -0.32767954
000090 e4 96 df 3e b7 29 5b bf fc 72 c2 3c 0f 64 2a 3e
       0.43669808 -0.85610527 0.02373647 0.16639732
0000a0 b9 95 3d be a9 1e b0 bd 9c 12 3b 3f ac cc 3d 3f
       -0.18514146 -0.08599598 0.7307527 0.7414043
0000b0 03 02 95 be ee 3e ab be ab 0d c1 bc 81 61 97 be
       -0.29103097 -0.3344645 -0.023566088 -0.29566577
0000c0 f9 a7 8e be 42 0e 09 3f 73 f2 d2 3d e6 92 08 3e
       -0.27862528 0.5353738 0.1030015 0.13337287
0000d0 e2 19 18 3f 10 22 b5 bd a0 9b 3c 3e 39 a6 20 3f
       0.59414494 -0.088443875 0.18418741 0.62753636
0000e0 fe d1 56 3e 90 79 c9 bd 78 00 fa be b0 0e 39 3e
       0.20978543 -0.09837639 -0.48828483 0.18072009
0000f0 d9 63 f7 3d ad 4b 6c be b6 5a 11 bf 9b b7 b4 be
       0.12079591 -0.23075743 -0.5677904 -0.3529633
000100 a1 1e 96 be 28 55 c0 be b0 36 47 be 5f 92 45 bd
       -0.29320243 -0.3756497 -0.19454455 -0.048235293
000110 c5 c6 08 3e cf b8 16 3e dd 98 10 3e ba 61 02 be
       0.13357075 0.14718936 0.14120813 -0.12732592
000120 a2 99 c1 bd 1b 2d c7 bc 6b 58 0c 3f 93 c0 c4 3d
       -0.09453131 -0.0243135 0.54822415 0.09607043
000130 ea 79 35 3e 5d 5a 5a be 70 ba 3a 3f 26 53 bf be
       0.17722288 -0.21323533 0.7294073 -0.37368125
000140 42 e6 83 3d cc d7 43 bd bb 71 83 3e 48 46 20 3f
       0.064404026 -0.04781322 0.25672707 0.6260724
000150 c2 9e 3f bf 9b 02 6f be db db 07 be 57 e0 ec be
       -0.7485162 -0.23340838 -0.13267462 -0.46264908
000160 0a ca 20 be 8f e9 4b be ea 0b 0f 3f 1d 93 87 be
       -0.15702072 -0.19913314 0.55877554 -0.26479426
000170 52 73 58 3c e5 e9 fc 3e bc 30 d9 be fa 23 1f bf
       0.013211088 0.49397197 -0.42419994 -0.6216427
000180 52 f3 1b 3f 29 a3 7b bf c2 30 36 3f 6a 9a b9 3d
       0.6091815 -0.9829584 0.7116815 0.09062655
000190 33 ca 3b bf 16 a9 aa bd 37 d4 f8 bd 50 af b3 3e
       -0.73355407 -0.08333032 -0.12149852 0.3509469
0001a0 9e 0d b7 3e fe 5d b9 3e ce 3a 84 3e 47 33 22 3e
       0.35752577 0.36204523 0.25826114 0.15839873
0001b0 bf fe ac 3e 12 76 c9 3d 1e 7a df 3d 5a 5e 3d 3f
       0.33788106 0.09836973 0.10911964 0.73972094
0001c0 27 61 e5 be 28 d0 12 3f 98 2a 1b 3d 5e ba 19 bf
       -0.44800684 0.5734887 0.037882417 -0.6005
0001d0 ad 67 92 bd 48 91 4b 3f c3 bd e2 be 14 ac 1f bf
       -0.07148681 0.79518557 -0.44285402 -0.62371945
0001e0 30 b6 39 3e bd fa aa be 9d b7 25 bf 74 62 a0 3e
       0.18135905 -0.33394423 -0.64733297 0.31325114
0001f0 30 e9 90 3e ba ce f0 3e 50 7b b7 bd fd f9 a2 bc
       0.28302908 0.4703272 -0.08959067 -0.019894594
000200 46 a5 ef 3e 33 6a 58 bf 43 de e1 be 09 ac bc be
       0.4680578 -0.8453705 -0.44114885 -0.36850002
000210 c9 f0 05 bf 9b 7b b0 3e 43 44 81 3d ee cf 83 3c
       -0.52320534 0.34469303 0.06311848 0.01609036
000220 fe 96 cc 3e 3b c3 cc 3e fd 42 ba be 1c 74 26 3f
       0.39958948 0.399927 -0.36379233 0.6502092
000230 04 e9 10 3f cb b3 ef 3e e5 57 b6 be a4 a7 23 be
       0.56605554 0.4681686 -0.35613933 -0.15981919
000240 11 b5 55 3e 90 ab c1 3d 81 b9 9c bd d1 35 df be
       0.20869853 0.09456551 -0.076525696 -0.43595746
000250 0a cc a8 be a8 b0 13 3f de eb 1b 3f fb 1f 82 be
       -0.3296817 0.5769143 0.6090678 -0.25415024
000260 ea 94 c7 bd e3 66 6c 3e f3 30 2f bf a6 36 c4 3c
       -0.097452 0.23086123 -0.68434066 0.02395184
000270 ee 0a 53 bd 8c 7b 8d be 74 59 2a 3f c2 8a b6 3e
       -0.051524095 -0.2763332 0.66542745 0.3565274
000280 f5 22 f1 3e 68 f3 d5 3d 49 5f bb be 83 26 c0 be
       0.47096983 0.10446817 -0.36596134 -0.37529382
000290 9c c4 89 3e 73 40 d6 3d 8f 9b 60 be af 86 06 3f
       0.26907814 0.104615115 -0.21934341 0.5254926
0002a0 1d 7d 33 3d 0b a2 9f 3e 96 97 1e be 90 90 bc be
       0.04382049 0.31178316 -0.15487513 -0.36829042
0002b0 cd 1b 01 bf e9 0a c4 be 60 70 a7 be fa ae 97 bd
       -0.50433046 -0.38289574 -0.32702923 -0.07406421
0002c0 6d ea 03 bf 2c e3 da be b3 c2 50 bf c6 68 40 3f
       -0.5152958 -0.42751443 -0.8154709 0.7515987
0002d0 f8 84 21 bf e8 2e e9 bc 27 72 38 bf 71 32 98 be
       -0.6309352 -0.02846475 -0.7204918 -0.29725984
0002e0 b2 ce 09 bf e0 30 16 3e 4d 0a 04 3e 5c 3e ec be
       -0.53831017 0.14667082 0.12894554 -0.46141326
0002f0 10 6b a1 3e 5c 0a d5 3e 14 de c6 bd 10 6e 8e 3e
       0.31526995 0.41609466 -0.09710327 0.27818346
000300 97 30 1c bf 97 3a 33 bc 72 f3 71 3d e0 01 10 be
       -0.6101164 -0.010939262 0.05907006 -0.14063215
000310 0d 6a 10 3f 9b 2a 75 3e 90 29 82 3e 7c d0 a9 3c
       0.5641182 0.23942034 0.25422335 0.020729296
000320 c6 28 c9 3a e6 00 42 be 63 64 6f 3d cd 60 bd be
       0.0015347234 -0.18945655 0.058445346 -0.36987916
000330 cb 13 4b 3e 94 b7 71 bb f1 8b d0 be 1e ef 47 bf
       0.19831769 -0.0036883103 -0.40731767 -0.7809924
000340 66 c4 ce 3d aa 92 3b 3e e3 51 ac 3b 33 05 58 3c
       0.10096054 0.18317667 0.005258785 0.013184833
000350 ca 5c 89 3e d4 ef 55 3f bc 45 c5 bc db f0 bb 3e
       0.26828605 0.83569074 -0.024081104 0.36707196
000360 17 d2 17 3e b7 da 9f 3d 55 0d 21 be fa 4c ef be
       0.14826237 0.078053884 -0.15727742 -0.46738416
000370 9f 70 70 be 31 c8 e1 3e a1 23 27 bc b5 3b 94 bc
       -0.23480462 0.44098046 -0.010201366 -0.018094877
000380 e6 36 2d be ad ed 95 3e 11 b2 d2 3c 5a 62 b8 be
       -0.16915473 0.29282895 0.025719674 -0.36012536
000390 86 ee fd be 10 11 62 bf de 2d 78 3e 59 ec 43 bf
       -0.4959604 -0.88307285 0.24236247 -0.7653251
0003a0 37 98 4d 3f 99 b8 6c 3d 40 14 b2 be ae ae 8f 3d
       0.80310386 0.057793234 -0.34781075 0.070157394
0003b0 96 21 82 be 4c 85 61 be ab 77 59 3e 6b 37 f0 3c
       -0.2541625 -0.22023505 0.21237056 0.0293233
0003c0 02 2b 82 3d fc bc b5 be d1 a7 f4 3e aa a7 8d bd
       0.06355859 -0.35495746 0.47784284 -0.06916745
0003d0 29 bf 9c be e1 fa 40 be 44 63 8f be 06 93 cb 3e
       -0.30614594 -0.18845703 -0.2800542 0.39760607
0003e0 53 03 b9 3d e5 a3 a5 bd 99 9e 92 be 69 a3 87 bd
       0.09033837 -0.08087901 -0.28636625 -0.06622965
0003f0 a2 fa fe 3e c5 76 d9 3e 9c 97 ae 3e 66 ca c0 be
       0.49800593 0.42473426 0.34100044 -0.37654418

encoder.bias f4 [32]
000000 1b 70 b3 3e 8d 9d 8c bf 67 90 96 bf 92 49 8b bf
       0.35046467 -1.0985581 -1.1762818 -1.0881827
000010 5e a1 94 3e 8f 76 b7 3e 1f 1d 46 3e ec 4f 70 3e
       0.29029363 0.3583264 0.19347046 0.23467988
000020 b1 89 8d bf 2d f1 97 bf dd 8b 8c bf 21 ad 8d 3e
       -1.1057645 -1.1870476 -1.0980183 0.2767115
000030 1b 90 8e bf 04 28 9f bf 2d 5f b8 3e 56 68 84 3e
       -1.1137727 -1.2434087 0.36010113 0.25860852
000040 2e d5 fa 3d 57 16 b5 3e 79 01 14 3e a1 d2 a5 bc
       0.12247692 0.35368606 0.14453687 -0.020242037
000050 ae 45 9b bf b4 a9 89 bf f6 2f 80 bf 7e 22 80 3e
       -1.213064 -1.0754914 -1.0014637 0.25026315
000060 ad db 25 3e a2 4a 88 bf 76 87 97 bf a5 33 96 3e
       0.16197081 -1.0647776 -1.1838214 0.29336277
000070 7a d1 a0 bf 77 36 7b 3e df 53 84 bf f6 ef 74 bf
       -1.2563927 0.24532495 -1.0338095 -0.9567865

fc.weight f4 [2, 32]
000000 a6 1a 5d be 08 da 5e 3e 19 ca de 3e 6c 5d 1f 3e
       -0.21592197 0.2176286 0.43513563 0.15562981
000010 d9 44 2e be b1 89 e1 bd 1f a2 83 be 8a 48 cd bd
       -0.17018451 -0.11012591 -0.25709626 -0.10023601
000020 14 c0 4a 3e f5 af 48 3e 7d 2d 2a 3e b6 10 a3 be
       0.19799834 0.19598372 0.16618915 -0.31848687
000030 55 a1 aa 3e 86 af 24 3e 14 52 77 be 94 d2 8b be
       0.33326212 0.16082582 -0.24152404 -0.27309096
000040 41 63 48 be a3 0f 46 be af d5 bf bd 00 b2 78 be
       -0.19569112 -0.19341902 -0.09366929 -0.24286652
000050 02 d3 b8 3e bd f1 c2 3e 7c ab 7b 3e d5 1c 25 be
       0.36098486 0.38075057 0.24577135 -0.1612428
000060 ee 05 9b be c0 59 a1 3e bb b4 5c 3e 38 13 89 be
       -0.30277961 0.31513786 0.21553318 -0.26772475
000070 68 af 64 3e 22 4e 94 be 6a 10 9e 3e bb 4c 7b 3e
       0.22332537 -0.2896586 0.30871898 0.24540989
000080 ca c8 3e 3e 0d 0c 80 be 87 e5 14 be 98 f3 a3 be
       0.18631282 -0.25009194 -0.14540683 -0.32021785
000090 5b be 47 3e c7 ca 7b 3e f2 f3 99 3d d4 3b 3f 3e
       0.19506209 0.24589072 0.07517232 0.18675166
0000a0 a1 cb a8 be 5c 41 56 be 6c 6e b3 be dc eb b7 3d
       -0.32967857 -0.2092337 -0.35045183 0.089805335
0000b0 c8 1d e3 bd cf 21 a0 be 19 c9 25 3e a1 a8 38 3e
       -0.11089665 -0.31275794 0.16189994 0.18033077
0000c0 9a f4 68 3e 08 57 a2 3e f6 33 aa 3e 72 f3 eb 3c
       0.22749558 0.31707025 0.33242768 0.028802607
0000d0 a9 9f ec bd ba 31 22 be 9a 75 61 be 51 14 59 3e
       -0.1155389 -0.15839282 -0.22017518 0.21199156
0000e0 6a 19 62 3c 79 9e 0f be de c3 66 be 80 54 f9 3d
       0.0138000045 -0.14025296 -0.22535655 0.1217432
0000f0 2c 61 82 be 1d d6 68 3c ea 64 10 be fa 10 74 be
       -0.2546476 0.014211205 -0.14100996 -0.23834601

fc.bias f4 [2]
000000 46 a6 5c bf d2 db 5a 3f
       -0.86191213 0.8549167
