models/Stage1/CNN_Group_600_1400.pt (torch, 11186 bytes, 5 tensors)

embedding.weight f4 [24, 16]
0.0 0.0 0.0 0.0 0.0 0.0 0.0 0.0
0.0 0.0 0.0 0.0 0.0 0.0 0.0 0.0
0.23178178 -0.6847013 0.4374465 -0.9799137 0.7625647 1.4947587 -0.15044335 0.22630817
-1.2903917 1.2899467 0.20568226 -0.40768892 -1.2805129 0.13402918 -0.42832357 -1.9408107
-1.7160218 1.2602739 -0.89331406 2.5493283 0.4145586 -1.3577446 -1.2461354 1.3475568
0.935723 -0.76280546 1.5945154 0.47475237 2.7156124 1.0076045 2.0537474 -1.3129891
-0.9033026 0.45357755 -0.9180827 -0.31055698 -1.3076662 0.07243883 1.6281993 0.40029588
0.24120416 1.4082628 0.24868852 1.0934379 1.5920078 1.6891466 -1.7736878 2.4921446
2.3330655 -1.476941 0.48915133 -1.2053027 -0.96557605 0.99567425 0.5263208 0.17111789
-1.6873482 0.007870091 0.44521022 1.409372 1.0231512 2.1248536 -1.3675821 -0.5416325
0.25768903 -0.4455138 -0.39790878 -1.2176064 -0.63169324 -1.449277 -0.9383805 -1.4428833
1.7531697 1.8576069 -0.5478991 -0.4941554 1.3824568 -1.7263733 2.486883 1.2365063
-0.5907237 -1.2846682 -0.3049148 1.599159 0.12752394 1.1473764 -0.58813107 -0.0036921792
0.4462032 0.39402553 -0.7185061 -0.75543815 1.956556 -1.6171521 1.6133381 0.59879714
0.90155435 -1.1732495 -0.388542 0.7347505 0.38102272 -0.2024408 -0.62401164 -0.894779
-0.70514846 0.7107458 0.333411 -2.5867121 -0.90850556 -0.41128716 -0.8748702 -0.32301536
-1.1037836 0.18256696 0.33195648 1.3728622 1.0559908 -0.27705538 -1.0195572 1.2210957
-0.5070439 1.0767704 -1.6859075 0.43095288 0.039961603 -0.27411038 -0.92745286 -0.47322607
-1.7340742 -0.8106331 -0.36315918 -0.52481604 1.4054478 0.42409426 -1.2255708 -0.5238685
0.37640166 -1.5688555 0.24052584 0.099706136 1.4294428 -2.113384 1.1481283 -0.2973276
1.5897104 -0.7760597 -0.6459993 -2.2432601 0.82033634 -0.89018667 -1.1716383 1.0675136
1.6722268 -0.23904234 -1.3171884 0.7642352 1.9677602 -0.2785242 -1.5085084 -0.70292056
0.5907088 1.1949539 1.8600725 1.405444 0.9510416 0.6966164 1.0637003 -1.0820051
-0.571466 1.9924799 -0.7972941 -0.92373866 1.4512595 0.6283085 -0.36603418 1.3050847
1.3442125 -1.3957373 0.19512524 -0.41511458 0.87296677 -2.4065278 -1.2546161 -0.48488873
-0.44636542 0.9466321 0.59763473 1.0760984 0.06346532 0.4000944 0.32196906 -0.23487182
-1.0440861 0.09322622 0.85307115 -0.026046295 0.81776685 -0.7323805 -0.21355501 2.44156
0.42843023 -0.91038305 0.04522148 -2.3477383 -0.33680198 0.56660587 0.33468488 2.5412672
1.5040007 -1.5777149 0.8711675 1.3021573 0.4860527 0.67339146 0.7396834 1.1966635
-2.091778 -1.1707125 -0.6844034 -0.14763394 1.2695639 1.7593963 0.25954583 -1.7311202
-1.3231018 -0.43094903 -0.6107442 -0.2309845 -2.2421877 -1.0305469 1.8186462 -1.6147294
-0.14751506 -0.3814621 1.1968367 0.5973745 -0.3647612 1.9717492 -1.2714381 -1.8005944
00000000: 0000 0000 0000 0000 0000 0000 0000 0000
00000010: 0000 0000 0000 0000 0000 0000 0000 0000
00000020: 0000 0000 0000 0000 0000 0000 0000 0000
00000030: 0000 0000 0000 0000 0000 0000 0000 0000
00000040: 3458 6d3e 9648 2fbf fdf8 df3e a0db 7abf
00000050: 7137 433f 4154 bf3f d20d 1abe 54bd 673e
00000060: 8e2b a5bf f91c a53f 5f9e 523e 9abc d0be
00000070: d9e7 a3bf f23e 093e 3a4d dbbe 7c6c f8bf
00000080: 9aa6 dbbf a850 a13f 3bb0 64bf 3228 2340
00000090: 0641 d43e 93ca adbf 5d81 9fbf be7c ac3f
000000a0: 8b8b 6f3f 3847 43bf 1519 cc3f be12 f33e
000000b0: 98cc 2d40 2ff9 803f 9970 0340 0710 a8bf
000000c0: d73e 67bf 513b e83e 7807 6bbf 5301 9fbe
000000d0: 9b61 a7bf cf5a 943d d668 d03f 95f3 cc3e
000000e0: 39fe 763e f541 b43f 34a8 7e3e c6f5 8b3f
000000f0: e9c6 cb3f f535 d83f 3408 e3bf 4c7f 1f40
00000100: f250 1540 670c bdbf 0b72 fa3e 5c47 9abf
00000110: fe2f 77bf 82e4 7e3f f6bc 063f 8739 2f3e
00000120: 07fb d7bf 8ef1 003c 98f2 e33e 4d66 b43f
00000130: 9ef6 823f 9afd 0740 ee0c afbf 6da8 0abf
00000140: d1ef 833e 631a e4be b3ba cbbe 87da 9bbf
00000150: a6b6 21bf e981 b9bf b439 70bf 66b0 b8bf
00000160: dd67 e03f 10c6 ed3f 1e43 0cbf f001 fdbe
00000170: 58f4 b03f cdf9 dcbf 1729 1f40 d745 9e3f
00000180: ab39 17bf 0270 a4bf cb1d 9cbe 3eb1 cc3f
00000190: a395 023e 3bdd 923f c28f 16bf 7df8 71bb
000001a0: bf74 e43e b7bd c93e 04f0 37bf 6564 41bf
000001b0: 6d70 fa3f d7fe cebf dd81 ce3f c54a 193f
000001c0: 44cc 663f 0a2d 96bf faee c6be 9c18 3c3f
000001d0: 6915 c33e a44c 4fbe 3abf 1fbf 3d10 65bf
000001e0: 9c84 34bf 70f3 353f d9b4 aa3e b18c 25c0
000001f0: d293 68bf 3b94 d2be 7ef7 5fbf 4562 a5be
00000200: c848 8dbf d5f2 3a3e 33f6 a93e f3b9 af3f
00000210: b52a 873f 34da 8dbe da80 82bf dd4c 9c3f
00000220: a1cd 01bf 9dd3 893f d1cb d7bf dba5 dc3e
00000230: c7ae 233d 3258 8cbe 8d6d 6dbf b04a f2be
00000240: 25f6 ddbf a785 4fbf 00f0 b9be 585a 06bf
00000250: b7e5 b33f e222 d93e 81df 9cbf 3f1c 06bf
00000260: b8b7 c03e 42d0 c8bf 684c 763e bb32 cc3d
00000270: fbf7 b63f af41 07c0 def5 923f 533b 98be
00000280: a17b cb3f d9ab 46bf 3660 25bf 9391 0fc0
00000290: 9001 523f 46e3 63bf 3ef8 95bf 49a4 883f
000002a0: 870b d63f 84c7 74be a199 a8bf eba4 433f
000002b0: 91df fb3f b99a 8ebe ce16 c1bf 9af2 33bf
000002c0: b138 173f 40f4 983f db16 ee3f 97e5 b33f
000002d0: 7677 733f 7455 323f 5527 883f 257f 8abf
000002e0: 994b 12bf 9509 ff3f 771b 4cbf 237a 6cbf
000002f0: dfc2 b93f d3d8 203f d568 bbbe 040d a73f
00000300: 280f ac3f 85a7 b2bf e9ce 473e e689 d4be
00000310: c07a 5f3f 8d04 1ac0 4397 a0bf 5643 f8be
00000320: 028a e4be 7b56 723f 97fe 183f 98bd 893f
00000330: 1bfa 813d 2cd9 cc3e 21d9 a43e 3d82 70be
00000340: 9da4 85bf 63ed be3d df62 5a3f 0a5f d5bc
00000350: 2b59 513f 4a7d 3bbf 2aae 5abe 8542 1c40
00000360: 355b db3e dd0e 69bf 293a 393d 5841 16c0
00000370: 4f71 acbe 150d 113f d15b ab3e 1fa4 2240
00000380: 1883 c03f 90f2 c9bf d504 5f3f 17ad a63f
00000390: e6db f83e 6263 2c3f e45b 3d3f 452c 993f
000003a0: b1df 05c0 e8d9 95bf 1035 2fbf 5a2d 17be
000003b0: 1281 a23f e633 e13f 31e3 843e 5995 ddbf
000003c0: 665b a9bf 5aa5 dcbe bb59 1cbf 3387 6cbe
000003d0: 0180 0fc0 f6e8 83bf 66c9 e83f 74af cebf
000003e0: 300e 17be 004f c3be f231 993f 89ed 183f
000003f0: fbc1 babe 4762 fc3f 7cbe a2bf e179 e6bf

encoder.weight f4 [32, 16, 3]
-0.12693763 0.07645797 -0.118461154 0.17025006 -0.07409232 0.09609975 -0.2969062 0.03132171
-0.13586621 -0.29828218 0.22540034 0.07017373 -0.145873 -0.36950392 -0.106590055 -0.11849446
-0.09785469 -0.11243816 0.23757298 -0.13517042 -0.044058546 0.0641828 0.12183668 0.23990881
0.02288388 -0.11036691 0.033372246 -0.017266423 0.14849812 -0.16104494 -0.24202996 -0.14366263
0.11480377 0.046381537 0.017329793 0.15916191 -0.036498547 -0.21435544 0.15662813 -0.085931934
0.28109992 0.025312282 -0.18309203 0.29616904 0.18967867 -0.25314265 0.104785234 -0.13893051
0.0757038 -0.15168437 -0.2788293 0.077051945 0.06887265 0.086547956 0.18028304 0.049204
-0.37233832 0.20224158 0.07295926 -0.06743568 0.051002916 -0.16543065 -0.16649103 -0.028451862
-0.08189328 -0.08739262 0.20907684 0.21598616 0.2498674 -0.15107237 -0.22331862 -0.11773084
-0.00010377318 -0.06800103 -0.08271651 0.19386905 -0.3595342 -0.05610075 -0.055862222 0.033538844
-0.06754331 -0.14195964 -0.06587508 0.07800477 0.068172276 -0.06768189 0.10025808 0.18447138
0.065963194 0.12368384 0.05211103 -0.17851134 -0.17732584 0.1863048 -0.21119164 0.15658066
0.13485028 -0.10122468 -0.19769554 0.062578 -0.068314165 0.034134444 0.08031325 -0.1427119
-0.16062373 -0.16618867 -0.0987602 0.13321175 -0.04208025 0.1714817 0.10690159 -0.13286409
0.20957014 -0.06594556 -0.15473612 -0.21312262 0.046247337 0.20270349 -0.046132043 0.1926879
0.20063704 0.0012065243 -0.04624255 -0.017983172 -0.3189692 -0.09375164 -0.18500026 0.030668866
0.09920871 0.0021853822 0.0018390496 -0.007441425 0.017664516 0.1379228 0.069162 -0.19773258
-0.3649049 -0.13740107 -0.21838395 0.036971968 0.08294221 -0.10202605 0.21370739 -0.1643713
-0.32866767 -0.12922186 0.120651364 -0.023076773 -0.21245058 0.04070539 -0.20498464 0.051380392
-0.12592924 0.06354208 0.16475685 -0.1746676 0.10803489 -0.2533387 -0.3171431 0.22749223
-0.20285599 -0.13047434 -0.25319272 -0.050294273 -0.14900003 0.112926185 -0.15187073 -0.26372167
-0.11650579 0.1531925 0.13327302 0.19430088 -0.39331892 0.21741723 -0.18583168 0.07240556
-0.1260821 -0.09771267 0.13550627 -0.15958494 0.0010734936 -0.019172473 0.16409406 -0.32311442
-0.101830654 -0.21594949 0.011929244 0.15396225 0.30768844 -0.2646833 -0.08481148 0.08147577
-0.148133 -0.022829544 0.020213427 0.018830318 -0.15372072 -0.07579135 0.15456517 0.017023351
0.15297784 0.20530075 -0.036837723 0.0031458067 0.00010215637 0.11889478 0.086705044 -0.062222596
-0.019030986 0.11286845 0.19909328 0.052325405 0.23834038 -0.19555686 0.08099574 0.15658824
-0.016523005 -0.26428124 -0.100112766 -0.10925118 -0.16091773 -0.21448615 0.17848429 -0.14642668
-0.09988513 -0.095841244 -0.010066697 0.04624788 -0.16007714 0.09001213 0.12171796 0.084525645
0.17546883 0.12819307 -0.17943327 0.0048343544 0.1761734 0.09052671 -0.047654305 -0.16943438
-0.09017316 -0.09275801 0.2622929 0.094055265 0.12638392 -0.11165444 -0.3656373 0.22108634
-0.1632128 -0.011907063 0.042708784 -0.21769984 0.0072093788 0.1733856 -0.118550874 0.09139093
00000000: f0fb 01be ff95 9c3d c39b f2bd 0856 2e3e
00000010: b7bd 97bd f2cf c43d 1704 98be 324b 003d
00000020: 8320 0bbe 71b8 98be 59cf 663e 3fb7 8f3d
00000030: bb5f 15be 9e2f bdbe e34b dabd 39ad f2bd
00000040: 0a68 c8bd fa45 e6bd 5546 733e 1d6a 0abe
00000050: bc76 34bd 4672 833d 8285 f93d a8aa 753e
00000060: fa76 bb3c 0c08 e2bd 56b1 083d 5072 8dbc
00000070: e40f 183e f7e8 24be b4d6 77be 4c1c 13be
00000080: 3d1e eb3d 91fa 3d3d 36f7 8d3c 57fb 223e
00000090: 807f 15bd fe7f 5bbe 2063 203e 15fd afbd
000000a0: 54ec 8f3e b45b cf3c 7a7c 3bbe 78a3 973e
000000b0: 203b 423e ea9b 81be a499 d63d cd43 0ebe
000000c0: 980a 9b3d 2653 1bbe b7c2 8ebe 69cd 9d3d
000000d0: 1b0d 8d3d 0e40 b13d 1e9c 383e 228a 493d
000000e0: 21a3 bebe 6b18 4f3e aa6b 953d b81b 8abd
000000f0: 6fe8 503d a766 29be a07c 2abe e113 e9bc
00000100: aab7 a7bd e7fa b2bd 3d18 563e 7a2b 5d3e
00000110: 3ddd 7f3e b7b2 1abe a3ad 64be de1c f1bd
00000120: cda0 d9b8 2044 8bbd 4667 a9bd 9c85 463e
00000130: de14 b8be e6c9 65bd c9cf 64bd 0760 093d
00000140: 2654 8abd de5d 11be 84e9 86bd f7c0 9f3d
00000150: e89d 8b3d ce9c 8abd 1c54 cd3d 11e6 3c3e
00000160: b617 873d f44d fd3d 6072 553d adcb 36be
00000170: e894 35be afc6 3e3e 9f42 58be ae56 203e
00000180: 3116 0a3e e34e cfbd b370 4abe e528 803d
00000190: 4ce8 8bbd 8fd0 0b3d 467b a43d 1123 12be
000001a0: 8c7a 24be 5d2d 2abe ca42 cabd a968 083e
000001b0: 575c 2cbd e698 2f3e 39ef da3d 860d 08be
000001c0: 8e99 563e 770e 87bd 2573 1ebe d13c 5abe
000001d0: d96d 3d3d 8191 4f3e f4f4 3cbd fa4f 453e
000001e0: cc73 4d3e 3d24 9e3a d468 3dbd 7251 93bc
000001f0: ee4f a3be dc00 c0bd b570 3dbe 463d fb3c
00000200: f02d cb3d a138 0f3b 440c f13a 33d7 f3bb
00000210: 2db5 903c a23b 0d3e cfa4 8d3d 697a 4abe
00000220: d1d4 babe deb2 0cbe 0ba0 5fbe eb6f 173d
00000230: 9bdd a93d 09f3 d0bd 1cd6 5a3e f350 28be
00000240: 2147 a8be bc52 04be 1018 f73d 800b bdbc
00000250: a58c 59be b2ba 263d 7ee7 51be 3f74 523d
00000260: 98f3 00be 5a22 823d 05b6 283e 10dc 32be
00000270: 6541 dd3d 9cb5 81be 9560 a2be b9f3 683e
00000280: 7bb9 4fbe 119b 05be 7aa2 81be 5e01 4ebd
00000290: 7793 18be d845 e73d 0084 1bbe 8706 87be
000002a0: 969a eebd 7fde 1c3e b978 083e cff6 463e
000002b0: 1961 c9be 9fa2 5e3e a94a 3ebe 5e49 943d
000002c0: ab1b 01be 951d c8bd 28c2 0a3e 3c6a 23be
000002d0: 78b4 8c3a 970f 9dbc 4608 283e 416f a5be
000002e0: 978c d0bd dd21 5dbe e072 433c 48a8 1d3e
000002f0: 5789 9d3e 9284 87be a4b1 adbd c5dc a63d
00000300: 2db0 17be 0605 bbbc a196 a53c 0a42 9a3c
00000310: f768 1dbe 7f38 9bbd 5546 1e3e 8e74 8b3c
00000320: 39a6 1c3e 5c3a 523e 27e3 16bd e129 4e3b
00000330: c93c d638 1b7f f33d 6a92 b13d 1fdd 7ebd
00000340: dfe6 9bbc 9327 e73d 1cdf 4b3e 2a53 563d
00000350: 800f 743e 0f40 48be 18e1 a53d ab58 203e
00000360: 415b 87bc df4f 87be ec07 cdbd 15bf dfbd
00000370: 9ec7 24be 42a2 5bbe 96c4 363e e0f0 15be
00000380: 9390 ccbd 6a48 c4bd caee 24bc 6b6e 3d3d
00000390: 43eb 23be 4858 b83d 4447 f93d c81b ad3d
000003a0: 1aae 333e 0b45 033e 5bbd 37be 8169 9e3b
000003b0: cd66 343e 1166 b93d 2931 43bd 3580 2dbe
000003c0: b5ac b8bd e9f7 bdbd 414b 863e 0ca0 c03d
000003d0: c96a 013e 15ab e4bd d034 bbbe 7564 623e
000003e0: 4221 27be d815 43bc 68ef 2e3d b5ec 5ebe
000003f0: a73c ec3b ff8b 313e cdca f2bd 2b2b bb3d

encoder.bias f4 [32]
-0.0117294695 0.04958585 -0.07279066 -0.1610942 -0.070878714 0.13696878 -0.09180462 -0.10466358
-0.1016841 0.020962162 0.085699104 0.09240913 -0.06787078 -0.16666166 0.0063845343 -0.06529873
0.14798622 -0.15183048 0.13618866 -0.10296039 -0.026862249 -0.10067349 0.01949253 -0.08379007
0.047027778 -0.14425072 0.032813717 -0.090668865 0.13728312 -0.10492571 -0.0978487 0.03899318
00000000: f62c 40bc 881a 4b3d 4513 95bd e1f5 24be
00000010: dc28 91bd 8b41 0c3e 1004 bcbd dc59 d6bd
00000020: c13f d0bd d7b8 ab3c 0383 af3d ff40 bd3d
00000030: d6ff 8abd 5ba9 2abe 5b35 d13b 57bb 85bd
00000040: b389 173e 7379 1bbe 0a75 0b3e e6dc d2bd
00000050: 380e dcbc e72d cebd ccae 9f3c 219a abbd
00000060: 33a0 403d 76b6 13be ad67 063d 99b0 b9bd
00000070: f293 0c3e 4ae3 d6bd e664 c8bd 50b7 1f3d

fc.weight f4 [2, 32]
-0.28191552 -0.26695538 0.21876006 0.13808537 -0.18445505 -0.1503547 0.1593636 0.26330018
-0.10332179 -0.26086724 -0.2762245 -0.21053983 -0.28791177 0.25110236 0.102901645 0.2269652
-0.20267247 0.24879849 -0.12204582 0.020568274 0.22804786 0.1933005 0.1384082 0.17719236
-0.23405609 0.28425235 -0.021109087 -0.3050514 -0.15914248 -0.2213569 -0.040765475 0.05701157
0.01182875 0.10188684 -0.18139991 -0.2707153 0.21856636 0.11741062 -0.15246627 -0.17605662
0.21052212 0.1658551 -0.04962856 0.18900281 0.0038992686 -0.12633666 -0.18371789 -0.21900126
0.109936886 -0.06318205 0.21854822 -0.23204626 -0.1881609 -0.2700435 -0.207471 -0.10453416
-0.025929607 -0.14369151 -0.21227069 0.08860114 0.21750218 0.1629851 0.19927986 -0.28944024
00000000: 3b57 90be 60ae 88be a302 603e 4066 0d3e
00000010: c9e1 3cbe 95f6 19be 3630 233e 48cf 863e
00000020: 609a d3bd 6490 85be 4c6d 8dbe c197 57be
00000030: 2c69 93be 7d90 803e 19be d23d 9169 683e
00000040: 5f89 4fbe 08c5 7e3e 29f3 f9bd cc7e a83c
00000050: 6185 693e 91f0 453e e1ba 0d3e ea71 353e
00000060: 66ac 6fbe 8689 913e f7ec acbc b22f 9cbe
00000070: 3ff6 22be 62ab 62be b3f9 26bd f784 693d
00000080: 60cd 413c 0caa d03d e6c0 39be 329b 8abe
00000090: dccf 5f3e fb74 f03d 1e20 1cbe 3048 34be
000000a0: 1c93 573e ebd5 293e 5147 4bbd f489 413e
000000b0: df8a 7f3b 665e 01be 8b20 3cbe de41 60be
000000c0: 9726 e13d 9765 81bd 1bcb 5f3e 899d 6dbe
000000d0: 40ad 40be 2443 8abe 4773 54be 0116 d6bd
000000e0: 546a d4bc de23 13be 7d5d 59be 8474 b53d
000000f0: e4b8 5e3e 91e5 263e 0510 4c3e 8331 94be

fc.bias f4 [2]
-0.09035332 0.1647366
00000000: 290b b9bd b6b0 283e
