models/Stage1/CNN_Group_0_100.pt (torch, 11159 bytes, 5 tensors)

embedding.weight f4 [24, 16]
00000000: 0000 0000 0000 0000 0000 0000 0000 0000
00000010: 0000 0000 0000 0000 0000 0000 0000 0000
00000020: 0000 0000 0000 0000 0000 0000 0000 0000
00000030: 0000 0000 0000 0000 0000 0000 0000 0000
00000040: 3586 153f d784 f1be 62ee af3f 4883 a9bf
00000050: 6782 74bf 364c 953f eade 1abf b7a8 72bf
00000060: d819 80bf 6943 c33d fbb3 853e e250 13bf
00000070: 2500 2c40 d210 84be 85d8 10bf 1d88 b53f
00000080: 37d8 483e 0bcf 903f 9a01 2040 d46a afbd
00000090: 27e3 3b3f b391 20bf eede 4fbf 99de 893f
000000a0: ba59 d6be 8607 acbf 0797 203f 74ca 6d3f
000000b0: b77c 673f 4f8f 00bf ac86 f93e 329f f0bf
000000c0: b77b 013f e120 b5bf d8dc ed3f 9071 233f
000000d0: 8e70 41be 4996 883f 36c4 a83e 77b5 153f
000000e0: b136 803f 30a4 643d dcb6 12be fb7d 55bf
000000f0: 7085 0dbf f755 82bf f8fb aebe 6c99 213f
00000100: 6fd9 5abf f066 223f 57e2 df3d 0f20 6cbf
00000110: 9d8c 06c0 45bd 8cbf 84e6 94bf f823 bd3f
00000120: 09fb d9bf df57 0bc0 a37b ab3e 0c67 89bf
00000130: 78fd 8abe 3363 7a3e c679 b1bf ee4d 0740
00000140: 6870 0140 d366 ea3e ccd1 0fbf 2dc2 66bf
00000150: a58b 3a3f e6df f2be e319 c73f 6abc 77bf
00000160: 4506 983f c9cf bfbf 7a2a d5bf 6331 efbf
00000170: aaab 01bf 3178 71be 0cbb 87bf 56e3 b33f
00000180: 3164 adbf 2e1b 0c3f 9124 e33f 3fc0 263e
00000190: 6e1c 6bbf abff 7bbd e767 613d 195d 99bf
000001a0: 612e ab3f ee0b dfbe 7041 823f dbac 9c3f
000001b0: 312a 383f c9d6 393e 6c39 62bd 594b e13e
000001c0: 6f9d 1e3f 136d fb3e edc2 62bf fc36 083e
000001d0: cc34 86bf dfd8 08bf 6ddc 82bf f612 843f
000001e0: e2c2 aebd 866c 0dbf 7209 bf3f 0fca b0bf
000001f0: 23f6 3cbf fc55 59be c940 363f 0d58 743f
00000200: ec5d 9f3f 8a64 1340 6920 a8bf aeb9 c6be
00000210: 4425 66bf 1db4 a23f 0c85 883e f9f6 813c
00000220: d3f9 ccbf 6509 d0bf 5eb2 20bf 4c46 88bf
00000230: 9f19 45bf f67d 8d3f 6a8d 2f3f 66f7 b83f
00000240: baae a43f 16f1 813f 296d 1c3f 6223 babe
00000250: c997 793f 5a33 9a3d bd2d 433f 2887 b2bf
00000260: c61b dfbe dbbe 063f 3742 a4bf a5b8 10bf
00000270: d38e ddbe a265 52bf 4847 1bc0 4530 4b3f
00000280: c292 3e3f 0add e73f 5e86 7c3f dbbe 3cbd
00000290: bacd 80be 414b a6bf 801a 82bf a197 7bbf
000002a0: 25a3 b73c a79c c23e ce3a e43f 3f8f a03e
000002b0: 4f28 ab3f 1d30 85bf 99a0 463f ca4a 07bf
000002c0: 5c9a 083c 3188 12c0 2ba1 2ebf 657d 27bf
000002d0: 8be5 593f 8b5c 833e bf92 d43f 6ff4 81bf
000002e0: 34e2 0c3f f38b 8abe 8dd9 b0bd fa3a 97bf
000002f0: 699e f83f 763d 3040 cf9b 8e3e 1ea3 4c3f
00000300: ece4 9ebe f11a 9fbf 7fa4 54ba 3f8d 92be
00000310: ab62 1fbf a578 47be b4eb 003f f854 cbbe
00000320: 8232 3dbf 7e9c 373e 4529 983f 4550 b8bc
00000330: 305e 423f 16e6 513e 8b29 dfbf ad0e 103d
00000340: 2361 a6be 53c6 81be fc19 b8bf 5eb9 133e
00000350: 1e7f 263f 7dac 9a3f 64f5 51bf c1a6 be3f
00000360: 847e 19c0 73ef 34bf 5d60 b93e 90e4 66be
00000370: f115 fb3f 4c99 77bf 864d 823f c832 9bbf
00000380: 0870 7dbf ff1b 1f3f 3a64 9a3e 8506 923f
00000390: 77e7 503f d63b 82be ad18 4fbf 45e1 a13e
000003a0: 475d a83e ed9d d5be 1da7 af3e d1c9 a7bf
000003b0: 254d 643f 5671 2c3f e360 1a40 7dbe b53e
000003c0: ec32 91bf 5a47 12bf d9ba 2cbf c60c c4bf
000003d0: 988c a73f 02e8 c93f 0811 c1bd d304 e8be
000003e0: 2569 a2bf 4690 12c0 7341 a8bd 08ff 8e3e
000003f0: e9a2 45bf 6740 12bf f2ca 2fc0 ca3e 0dbf
0.0 0.0 0.0 0.0 0.0 0.0 0.0 0.0
0.0 0.0 0.0 0.0 0.0 0.0 0.0 0.0
0.5840791 -0.4717166 1.3744624 -1.3243189 -0.9551148 1.1663883 -0.6049639 -0.9478869
-1.0007887 0.09534342 0.26113877 -0.5754529 2.6875088 -0.25794083 -0.5658038 1.4182163
0.1961373 1.1313184 2.5000978 -0.08565298 0.7339348 -0.6272232 -0.8119954 1.0771056
-0.4186533 -1.3439796 0.6273045 0.92887044 0.90424675 -0.5021867 0.4873556 -1.8798583
0.505794 -1.4150659 1.8583021 0.6384516 -0.18890592 1.0670863 0.32962197 0.5848002
1.001669 0.055820644 -0.14327568 -0.83395356 -0.55281734 -1.0182484 -0.34176612 0.6312473
-0.8548803 0.6343832 0.10931843 -0.9223642 -2.1023324 -1.099526 -1.1632848 1.4776602
-1.7029735 -2.1772382 0.33492765 -1.0734572 -0.27146506 0.24451904 -1.3865287 2.1141315
2.0224857 0.45781574 -0.561795 -0.9014004 0.7286933 -0.47436446 1.5554775 -0.9677187
1.1876913 -1.4985286 -1.6653588 -1.8686947 -0.50652564 -0.23581006 -1.0603957 1.4053752
-1.3546201 0.5472897 1.7745534 0.16284274 -0.91840255 -0.06152312 0.05503073 -1.1981536
1.3373529 -0.4356379 1.017622 1.2240251 0.7193938 0.1814834 -0.055230543 0.44002798
0.61958975 0.49106655 -0.88578683 0.13302225 -1.0484862 -0.5345592 -1.0223519 1.0318286
-0.08533265 -0.5524372 1.4924757 -1.3811663 -0.73813075 -0.21224207 0.71192604 0.95446855
1.2450538 2.3030114 -1.3134891 -0.38813537 -0.8990061 1.2711216 0.26664007 0.015864836
-1.601374 -1.6252867 -0.62772167 -1.0646453 -0.7699222 1.1054065 0.68575156 1.44505
1.2865822 1.0151699 0.61104065 -0.3635512 0.9749723 0.07529326 0.76241666 -1.3947496
-0.43575877 0.5263497 -1.2832707 -0.56531745 -0.4327303 -0.8218633 -2.4262257 0.7937053
0.74442685 1.8114331 0.9864253 -0.04608045 -0.25156957 -1.2991716 -1.0164337 -0.9827824
0.02241666 0.3801014 1.7830446 0.31359288 1.3371676 -1.0405308 0.775888 -0.52848494
0.008337583 -2.2895625 -0.6821467 -0.6542571 0.8511588 0.25656542 1.6607283 -1.015272
0.5503266 -0.27059898 -0.086352445 -1.1814873 1.9423343 2.7537513 0.27853248 0.799364
-0.3103403 -1.2430097 -0.000811167 -0.28623387 -0.6225993 -0.19479616 0.50359654 -0.39713264
-0.73905194 0.17930791 1.1887594 -0.022499213 0.7592497 0.20497927 -1.7434553 0.035170246
-0.32495984 -0.25346622 -1.438293 0.1442618 0.65037715 1.2083889 -0.8201506 1.4894639
-2.398347 -0.7067787 0.36206332 -0.22548127 1.9616071 -0.9671829 1.0179908 -1.2124872
-0.9899907 0.62152094 0.30154592 1.140824 0.8160319 -0.25436276 -0.8089703 0.3161718
0.32883665 -0.4172205 0.34307185 -1.3108464 0.89180213 0.67360437 2.4121635 0.35496894
-1.1343665 -0.57140124 -0.67472607 -1.5316398 1.3089781 1.5773928 -0.094270766 -0.4531618
-1.2688338 -2.2900558 -0.082156084 0.27928948 -0.77201706 -0.5712952 -2.7467618 -0.55173934

encoder.weight f4 [32, 16, 3]
00000000: 9d6a 6cbd 4402 5f3e b35b 88bd 4fd0 1a3e
00000010: 4346 a23d e18e 53bb 6351 f83d ecc9 81be
00000020: bd6a b3bd b292 8b3d 892e 0ebe 0692 9d3d
00000030: f5a4 a6bd 99dc 70bd c138 c53d 0408 763d
00000040: 625e a53d 39c1 913d fa24 88bd d323 4cbe
00000050: 8878 5d3e 6ef3 9dbb 546d 4d3d 2680 663c
00000060: 4d28 8b3d a802 c23b adc0 503e 9edf 363e
00000070: 2583 27be 9411 dbbd d297 243e 2ee7 08bc
00000080: a6e3 37bd 41ac 6a3c 62f9 b9bd 01d5 4fbe
00000090: 186a 7d3d ba3f 8abe 8794 4b3e 075f c5bd
000000a0: 5d13 a53d b52e 8fbc 7d79 f63c 01fc 4e3e
000000b0: 0823 2fbd c90c 62bc 773b d13d de0b d63a
000000c0: ebd0 3d3e bb9c 773e 5ded 0abb c7a2 46bd
000000d0: 3ae4 033e ba30 433d 6848 8bbd 6a3a 57be
000000e0: a3fc cf3d 8fad d8bd c583 08bd 2fe9 9d3d
000000f0: d39a 7d3e 5ce1 35bc 0a2d 983d cd15 553d
00000100: b655 b7ba 69f4 e73d d916 033e a00f 583e
00000110: 0a25 d5bd e4b9 13be ee70 84bc e5ce 0e3c
00000120: dc23 893d 8086 6dbd 9408 8e3d f813 0bbe
00000130: dfa3 ffbd 6b58 933e 5547 debd 5b8c 0bbe
00000140: 0231 abbd 1c45 88bd 5f8f 21bd b71c 543e
00000150: 2d90 94be bc27 36be 0472 d1bd d0c3 cb3c
00000160: f552 953d e4a0 ec3a 3007 19bd 358c 4a3e
00000170: 71ea 0d3e dee2 973d 0a48 9d3d e7be 0e3e
00000180: 558f 0dbe fa64 a93e d6ca 51be 1889 7b3e
00000190: 22dc bf3d 7ee9 e1bd a685 cfbd 851e 293e
000001a0: a3a5 773c 8815 ad3d be3e 97be caaa 87bd
000001b0: e0e4 d0bd af71 80be 5c2b 28be 6d04 3dbe
000001c0: 81f3 8f3e eacc 95bd 6c52 373e 0149 3bbe
000001d0: b1a1 043d 271f 973d 9d7a 90be 4c4f bd3d
000001e0: 86b6 843e 55f5 23be d6b1 1f3e d08f 3bbe
000001f0: 476f 083d 0ca3 b23d f909 51be df86 2abe
00000200: 40b2 01bd 9b47 b6bd 4dfe b6bd b612 a9bd
00000210: fb7c 393e 7e55 033e 07ee 5a3e 7282 35be
00000220: 4f99 dbbc 4b97 723d dd23 9a3e cad9 d1bd
00000230: 1a7b 9abd 47a9 4e3e 2c37 5f3e 5f1c 0b3e
00000240: a866 80be 2f95 0cbd d2b6 90be 4dbd 243e
00000250: a457 04be 9e10 4b3e 3e7e 343e dfd2 fcbd
00000260: 3ced 1b3d 3c8d 113d be5e c73d 0bf2 af3c
00000270: 896f d7bd 2b59 103d 6963 0cbe 2a54 3c3d
00000280: 450a 8fbc 3b37 083e c94a 843d 3cf2 5cbc
00000290: c888 1d3e 5375 79be 2a92 793c 0ce5 303c
000002a0: c876 2c3e 2e1a 9a3d 5450 923e 2eac bd3d
000002b0: cc45 8c3d 5ece 04bd 4aff b63d e9d9 a4bd
000002c0: b137 e63c 3bf8 a13e 16b4 be3d 57ac 6d3e
000002d0: 1973 4f3c 804a 36bd d2b3 023e 1644 e33d
000002e0: ab87 0f3e dc56 fdbb 74ec 5cbd d5a5 103e
000002f0: a43b 913c 3c48 a03d ab45 48be 939f 1b3e
00000300: b6d8 96be 90ec a8be 6e1c 8d3c 7002 2e3e
00000310: defe aebd 2e0f 0cbe ac7d 193e 1e99 0a3e
00000320: fe0d b03d a2f6 b73d a070 913e e0d6 89be
00000330: 12fc 04be 6213 8fbd 8135 7cbd 8afa 3a3d
00000340: 7345 1c3e 0508 a83e 79e1 1e3d 98e4 26be
00000350: 35bf 043e e701 69be bf1e ecbd cd6d 08bc
00000360: 5f01 713e 3bc4 db3d 7165 7fbd 29f9 203e
00000370: f105 ed3d 9eb4 7b3e ce20 69bc 5f58 d53d
00000380: d525 afbd 9d6d bd3e 0010 743d 5da5 3ebd
00000390: 6628 1abe 8a39 2c3d d079 513e 1399 893e
000003a0: cbf2 ec3d b380 763d 1838 c6bd 9dd1 52bd
000003b0: 4cc5 e2bd 2e97 8f3c 310d bebd aeb5 4e3c
000003c0: e785 9e3d a173 5fbe 903e 65bd 1507 debc
000003d0: 0cd0 fbbd 87de efbc a6c6 12be bee5 c1bc
000003e0: eb4f 073e 9358 833e 86a8 aa3d 7015 40bd
000003f0: 9081 0cbe 53b0 f6bd b3df 6e3e 1b63 2fbe
-0.05771886 0.21778208 -0.06658115 0.15118526 0.079235576 -0.0032281207 0.12124898 -0.25349367
-0.08760593 0.06815089 -0.13884939 0.076938674 -0.08136932 -0.05880413 0.096299656 0.060066238
0.08074643 0.071169324 -0.06647678 -0.19935541 0.2162801 -0.004820279 0.05015309 0.014068639
0.06794796 0.005920727 0.20386 0.1785874 -0.16358621 -0.10696712 0.1607354 -0.008355899
-0.044894837 0.014323295 -0.09080769 -0.20296098 0.061868757 -0.27001745 0.19880877 -0.09637266
0.08060334 -0.017478326 0.030087227 0.2021332 -0.042758018 -0.0137969935 0.1021642 0.0016330441
0.18536727 0.24180882 -0.0021198608 -0.04849508 0.1288003 0.04765389 -0.0680092 -0.21018377
0.101556085 -0.10579979 -0.03332879 0.07710492 0.24766092 -0.011101093 0.074304655 0.052022744
-0.0013987336 0.113259144 0.12801684 0.2109971 -0.10407455 -0.1442638 -0.01616713 0.00871632
0.06696293 -0.057989597 0.0693523 -0.13581836 -0.12482428 0.28778395 -0.10853449 -0.1362776
-0.08358957 -0.066538066 -0.03944337 0.20714079 -0.29016247 -0.17788595 -0.10226825 0.024873644
0.072912134 0.001805332 -0.03736037 0.19780047 0.13858964 0.07416318 0.07679756 0.13940011
-0.13824208 0.33084852 -0.20487532 0.24564016 0.09368159 -0.11030863 -0.10132913 0.16515549
0.015115174 0.084513724 -0.29540056 -0.06624372 -0.101999044 -0.25086734 -0.1642279 -0.1845872
0.28115466 -0.07314475 0.17902535 -0.18289568 0.032380763 0.07378989 -0.28218547 0.0924364
0.25920504 -0.16011555 0.15595183 -0.18316579 0.033309247 0.08722505 -0.2041396 -0.16653012
-0.031664133 -0.089003764 -0.08935223 -0.08255522 0.18114083 0.12825581 0.21379863 -0.17725542
-0.026806502 0.059226315 0.30105487 -0.10246618 -0.07543011 0.20181762 0.2179839 0.13585041
-0.2507832 -0.03432196 -0.2826448 0.16087838 -0.12924057 0.19830558 0.17626283 -0.12344908
0.03806804 0.035535082 0.097348675 0.02147772 -0.105193205 0.035241287 -0.13709797 0.045978703
-0.017460952 0.13302319 0.06459577 -0.013485488 0.15384209 -0.24361162 0.015232602 0.0107967965
0.16842186 0.07524525 0.2857691 0.09261356 0.0684925 -0.03242337 0.08935411 -0.080493756
0.028102728 0.31634697 0.093116924 0.23210274 0.012661719 -0.044504642 0.12763909 0.11096971
0.14016597 -0.0077313017 -0.053936437 0.1412576 0.017728634 0.078262776 -0.19557826 0.15197591
-0.29462212 -0.32992983 0.01722547 0.16993117 -0.08544706 -0.13677666 0.14989346 0.13534972
0.08596419 0.08982588 0.2840624 -0.2692175 -0.12986782 -0.06986119 -0.061574463 0.04564909
0.15260868 0.32818618 0.038789246 -0.16298139 0.12963565 -0.22754632 -0.11529302 -0.00832696
0.2353568 0.10730787 -0.0623526 0.15720047 0.11573399 0.24580619 -0.014229013 0.10417246
-0.08552138 0.3699769 0.05958557 -0.04654442 -0.15054473 0.04204706 0.20456624 0.268746
0.115697466 0.06018133 -0.09678668 -0.051469434 -0.11072788 0.017528143 -0.0927986 0.012616558
0.077403836 -0.21821453 -0.055967867 -0.027102986 -0.12295541 -0.029280914 -0.14333591 -0.02366912
0.1321408 0.25653514 0.083329245 -0.046895444 -0.13721299 -0.1204535 0.23327522 -0.1712765

encoder.bias f4 [32]
00000000: d545 bc3d 61a4 f4bd edd0 30bd 3cea fabd
00000010: c54b 1abe eafa c83d 4340 163d 0744 263e
00000020: 1cdb c6bd 4234 74bd 5275 b7bd fc38 883d
00000030: dd91 68bd 9744 903c 2bf5 e5bd 76d0 dabd
00000040: 83bc ae3d 5a6f 2cbe b043 cb3d 9fac b5bd
00000050: 792a 0e3e 6519 a03b f04c 1b3e 7190 16be
00000060: 96b9 aebc f90b c1bd 1595 1a3e 9ff4 1cbe
00000070: c7e2 893d 2f0e 10bd 3d67 1d3d b079 0abe
0.09193007 -0.11945415 -0.043167997 -0.12251708 -0.15067966 0.09813483 0.03668238 0.16236888
-0.097097605 -0.05962015 -0.08957924 0.06651494 -0.05677973 0.017610831 -0.11228403 -0.10684292
0.085320495 -0.16839352 0.0992502 -0.088708155 0.1388339 0.0048858398 0.15166068 -0.14703538
-0.021328729 -0.09426112 0.15095933 -0.1532769 0.067327075 -0.035169777 0.038428534 -0.13522983

fc.weight f4 [2, 32]
00000000: e87f 8dbe f1bd 9f3e 938d 91be 647f 913e
00000010: b024 113e 1ab1 663e ea54 9ebd 5c3d 5b3d
00000020: 9197 4fbd 4e54 763e 02e8 6e3e 2680 393d
00000030: 7dcb 743e d81b a1bd 5a3e 193e 52cb 0d3d
00000040: e7c3 823e c7b1 893e 8c0f dcbd bfac 073e
00000050: 586b 58bd dc23 70be 03cc 57be 375c 0a3e
00000060: f2c8 69be 7727 97be 9686 71be b4af 9d3e
00000070: 161a c8be bdfd 3bbe cdaa 3a3e 574f 6f3e
00000080: 9da1 783e 3589 a2be 76cf 333c 1b91 99be
00000090: 1e36 7abe 6c80 6abe 0987 6e3e 98ed 953e
000000a0: 0e4a 943e 81d5 47be a438 2dbe 4bcc 6abe
000000b0: 591b 58be 32d2 993e 2f1d 9fbe 8a06 65be
000000c0: 5be7 2fbe 0e3a 94bd fea8 163e 7250 25be
000000d0: 30d2 3c3e 273b 833e de71 3f3e ee09 55be
000000e0: f38c 783e 4f7f 593d d699 583e 9c4e 14be
000000f0: f867 533e a0c3 223e b7e8 a3bd e53d 85be
-0.27636647 0.311996 -0.28428325 0.28417504 0.14174151 0.22528496 -0.0773104 0.053525314
-0.050681654 0.24055597 0.23330691 0.045288227 0.2390575 -0.07866639 0.14965191 0.03461773
0.25540087 0.26893446 -0.10745153 0.13249491 -0.052836746 -0.2345118 -0.21073918 0.1351174
-0.22830561 -0.29522297 -0.23586497 0.30798113 -0.39082402 -0.18358512 0.18229218 0.2337011
0.242804 -0.31745306 0.0109747555 -0.2999352 -0.24434707 -0.22900552 0.232937 0.29282832
0.2896275 -0.19515039 -0.16916138 -0.22929494 -0.21104182 0.3004318 -0.31076953 -0.22365776
-0.17178099 -0.072376356 0.14712903 -0.16143969 0.18439555 0.25631067 0.1869578 -0.20804569
0.24272518 0.053099927 0.21152434 -0.14483112 0.2064513 0.15894938 -0.08003371 -0.26023784

fc.bias f4 [2]
00000000: 578b 4fbe 2b67 1d3d
-0.20267998 0.038428467
