models/Stage1/LSTM_Group_0_100.pt (torch, 30384 bytes, 7 tensors)

embedding.weight f4 [24, 16]
00000000: 0000 0000 0000 0000 0000 0000 0000 0000
00000010: 0000 0000 0000 0000 0000 0000 0000 0000
00000020: 0000 0000 0000 0000 0000 0000 0000 0000
00000030: 0000 0000 0000 0000 0000 0000 0000 0000
00000040: 5085 a3bf 616b 0abf 6a13 8ebf b5be aebe
00000050: c798 a83f 2fb2 9abf 9c00 7c3f 7f29 5abf
00000060: cdb9 933e 3ded 0340 ffd2 93bf cc03 c3be
00000070: c096 0540 fef5 7fbf e9dd 303e 85db 543f
00000080: 0f7e a5bf 50f1 48bf 4669 553f 98f4 353e
00000090: bad9 6b3e b72b 0bbf bafd babf 906b bdbf
000000a0: 64df 743e 2a33 7e3d bdbf 02c0 b189 85be
000000b0: fe62 f93e c4b6 a73e 9aa8 853e 89d6 f63e
000000c0: bf76 6b3d 35b9 873f 8e11 8f3e 6630 983e
000000d0: f101 c73e 15e1 1d3e d51f 7cbf d33f 933f
000000e0: 51b2 553e 2397 973f f415 f7be 9feb c3bf
000000f0: fcb6 11bf 6a0e 653f 49e2 903e bcb1 123f
00000100: 638a 09bf 9906 43bf 3b53 84bf 7547 f73d
00000110: 53de 01bf da7e 03bf 664d 20be a26b 9dbf
00000120: dc17 37be 2575 d7be e5ff 913f e517 8b3f
00000130: 19d2 0940 9195 603f eb82 623e 5ff5 d9be
00000140: cdfe 0abf f0cb ff3f 8d17 f93f 0a7c 4d3e
00000150: c4ea 023f 511d ed3f a06b f13f 7042 5cbf
00000160: afd1 f73e e873 0e3d c566 37bf 5515 5a3e
00000170: e335 10be d918 623e d62f d7be 5d43 353f
00000180: c2a3 ad3f 0356 e13e b4e3 19bf d244 9e3f
00000190: dcb4 9abd 9167 fa3f 65a0 9c3f 0e1b fbbf
000001a0: ab24 cabd 66af 20be 55d4 3cbe 6055 f83e
000001b0: b973 523e b139 88be 4965 773f 1cf6 e73e
000001c0: b00a 6e3f 3994 20bf d15d c9be fa2b a0be
000001d0: 53a8 9ebe 8b89 47bf 71f6 a6bf bcac 6bbe
000001e0: 03a2 28bb dee0 c5bf 1b59 ec3e 1fb9 15be
000001f0: 81d1 1840 dae9 d5be 893b 853f 5527 463f
00000200: 65a8 fa3d 7856 3dbf f246 093f b6e3 02bf
00000210: 2031 c33c 179b d4be 10a5 8c3f 50e9 4abf
00000220: 69a1 e2bf 7654 94bd 2b8c bbbf d084 23bf
00000230: a182 a6bf f196 81bf 9995 51bf 254c d23f
00000240: ebfd dcbe c5cf 933e 9b72 e7bf e391 38bf
00000250: 01e1 5a3f ee39 823f e0b0 23bf 702f 08bf
00000260: 053d a9bf 46dc 573d ea65 5a3e e855 ec3e
00000270: 5bb6 283f 13c3 25c0 6322 6b3e 6ba9 4bc0
00000280: 7843 d0bd b4ef 9cbf 9e5e 183f d040 693f
00000290: a5fd 41bf 6f85 83bf 4697 513f 76a3 713e
000002a0: d3b3 873f fbaa bc3f b910 93be 1992 5f3f
000002b0: e71c 1b3f c969 cdbf f930 593e 9b44 a33e
000002c0: bbdb 8e3f 0179 473f f167 053f 8508 8cbd
000002d0: 7882 bdbe a794 c7bf aead b4bd 1b60 4dbf
000002e0: 2a97 1dbf 32d0 743f 70c9 053f 0c41 803f
000002f0: 48d3 a13f d01e b53f a5a4 5b3f 34ea 063f
00000300: 243a 13be bcc9 efbe abe5 f73e 37d5 6c3f
00000310: 5b3e 99bf 97f0 a1be 9e2f 1c3f 643a 2abf
00000320: 6ac4 1bbf 2fb1 e13f d580 dfbf 7dd8 4c3d
00000330: edcb 99bf bf86 5d40 36d7 903f 48b2 9dbf
00000340: 9956 4d3f ff0e 933f dc6f 1440 c9e1 66bf
00000350: 285d 69be e654 5e3f ea62 bdbe 7fda 6b3f
00000360: 55a3 773e 61bf ba3e f2d4 4640 6da1 69bf
00000370: d699 23c0 b864 8f3f 7d90 bb3f 771d 3ebf
00000380: ab05 1140 8c2b 2fbf 88dd 823e 7244 bebf
00000390: 0504 e4bf 3406 383f 4539 9c3f f362 0cbe
000003a0: a2af 54be 26db 1c3f 8262 8a3e 95ad 843d
000003b0: fa34 d3bf 5da4 373f 7c41 0c3f ab23 73bf
000003c0: f0e3 6cbf 7dae 613f b642 bfbe 6aed cb3e
000003d0: 3118 02c0 2255 01bf 0b7d 203f 179a 983f
000003e0: b41b 9fbd 9c0f cabf 9786 213f 176e 1f3f
000003f0: 18cc d0be 1834 343f 7161 37be 19a7 adbe
0.0 0.0 0.0 0.0 0.0 0.0 0.0 0.0
0.0 0.0 0.0 0.0 0.0 0.0 0.0 0.0
-1.2775059 -0.540701 -1.1099675 -0.34129873 1.3171624 -1.2085627 0.9843843 -0.8521957
0.28852692 2.0613549 -1.1548766 -0.38088834 2.087326 -0.9998473 0.17272152 0.8314746
-1.2929095 -0.78493214 0.8336376 0.17769086 0.23032275 -0.5436358 -1.4608681 -1.479845
0.23913342 0.062060513 -2.0429528 -0.26081613 0.48708338 0.32756627 0.26105195 0.48210552
0.057486292 1.0603396 0.2794308 0.29724425 0.3886867 0.15417893 -0.9848607 1.1503853
0.20868804 1.1842998 -0.48258936 -1.5306281 -0.56919837 0.8947512 0.28297642 0.5730245
-0.53726786 -0.7618194 -1.03379 0.12074176 -0.50729865 -0.51365435 -0.15654525 -1.2298472
-0.17880195 -0.42081562 1.1406218 1.0866667 2.1534483 0.8772822 0.22120254 -0.42570016
-0.54295045 1.9984112 1.9460312 0.20066848 0.51139474 1.8524572 1.886097 -0.86038876
0.48402163 0.034778506 -0.7164119 0.212972 -0.14083056 0.22079791 -0.42028683 0.70805913
1.35656 0.44010934 -0.6011307 1.2364752 -0.075540274 1.9562856 1.2236449 -1.9617631
-0.09870275 -0.15691909 -0.18440373 0.48502636 0.20551957 -0.26606515 0.96638924 0.45304954
0.9298506 -0.6272617 -0.3932939 -0.3128355 -0.30987796 -0.7794425 -1.3043958 -0.23015112
-0.0025731332 -1.5459249 0.46161732 -0.146214 2.387787 -0.41779977 1.0408794 0.77403766
0.1223915 -0.73960066 0.5362388 -0.5112871 0.023827136 -0.41524574 1.0987873 -0.79262257
-1.7705508 -0.07242672 -1.4652151 -0.6387453 -1.3008615 -1.0124189 -0.8186889 1.6429487
-0.43162474 0.28869453 -1.808185 -0.72097605 0.8549958 1.0173929 -0.63941765 -0.53197384
-1.3221747 0.052700303 0.2132794 0.4615929 0.6590325 -2.5900314 0.22962336 -3.1822155
-0.10169119 -1.2260652 0.59519374 0.9111452 -0.75777656 -1.0275096 0.8187145 0.23597512
1.0601753 1.4739679 -0.28723696 0.873323 0.60590976 -1.6047908 0.21210088 0.3188828
1.1160806 0.7791901 0.52111727 -0.068375625 -0.37013602 -1.559224 -0.08822189 -0.8022477
-0.61558783 0.9563018 0.52260494 1.0019851 1.2642603 1.4150028 0.857981 0.52701116
-0.14377648 -0.468336 0.4841741 0.9251284 -1.1972154 -0.31628868 0.6101016 -0.6649535
-0.6084658 1.7632197 -1.7461191 0.050011147 -1.2015358 3.4613492 1.1315677 -1.2320032
0.8021026 1.1488951 2.3193274 -0.9018827 -0.22789443 0.86848295 -0.36989528 0.92130274
0.241834 0.36474136 3.1067472 -0.9126194 -2.5562644 1.1202612 1.4653469 -0.7426371
2.265971 -0.6842582 0.2555964 -1.4864638 -1.7813727 0.71884465 1.2204977 -0.13709621
-0.20770124 0.61271894 0.2702828 0.06478421 -1.6500542 0.71735173 0.5478742 -0.949763
-0.92535305 0.88156873 -0.37355584 0.3982957 -2.0327265 -0.5052053 0.626908 1.1922024
-0.07768956 -1.5786014 0.6309599 0.6227736 -0.4078071 0.7039199 -0.17908265 -0.33916548

encoder.weight_ih_l0 f4 [128, 16]
00000000: 3698 24bd ef13 42be db54 89be 2bfe 103d
00000010: 1249 afbd b5de 5d3e 9f81 c53d f803 98bd
00000020: 2c3c 8fbe 2064 9a3d 97e3 03be b3ed 46bd
00000030: 7c3d 073e 15a0 19be 82e0 373e cd0d 46be
00000040: 88d1 d0bb f990 eabd 8d98 57be f8cc f5bc
00000050: d061 0e3e 18ca 593e d751 23be d8fe 9c3d
00000060: 19cb 44bd c5fa b53d ce59 16bc 1e69 4a3e
00000070: c5f9 01be 161e 9dbe 7e59 273e 047d 01be
00000080: aa66 3cbe 5208 88bd c6ad 1c3c 8112 01be
00000090: 0fa1 1fbe b661 a33c e195 b5bd fca3 f9bd
000000a0: ded5 96bd 7800 573e e5db 50be 6ca1 f8bc
000000b0: 5651 463b e74a 973d 4317 8f3d a5be 243e
000000c0: 17ca e4bc ea13 2f3d 42eb 74bc 9728 c83b
000000d0: b1c2 f43d ff24 113e d64f 1a3e b549 d3b8
000000e0: baf3 453d 1731 9d39 264f 17be 3339 e93d
000000f0: 5fda 883e 16b3 4dbe 6a2f d53d 8b20 aa3d
00000100: 7143 efbd ec18 8fbc 361f cd3d 19d8 9a3d
00000110: cd75 903d 0e73 48bd b015 563c dcdf 0d3d
00000120: a314 0c3e 21cd 4b3e 8256 f73d 78eb 3f3d
00000130: 0913 5dbd 1be8 12be 7b51 11be 03df bfbd
00000140: 7cc1 85be 6015 28bd bba6 abbd 39b6 1c3d
00000150: 2897 383d 47d6 91be 64b2 553e 4443 19be
00000160: 43f0 4cbe ccbe 683c 2272 1abd 66e4 2b3d
00000170: 2c50 2e3e 45b9 41be 5a14 58be 7faf 033e
00000180: a5f3 64be a677 abbd dd40 00be b459 fc3d
00000190: fef2 f43d 3495 373e d9df 52bd 0736 9fbc
000001a0: e77f 96bd 6f7a a03d f16a 35be fe4c 6d3e
000001b0: 57b4 7c3d e3e4 e1bc 4b99 523d 7374 d83d
000001c0: 8852 f4bd 0396 3e3e fdde e83d ea29 c93d
000001d0: ba5f 48be 8464 163e e0d3 763e 46fd c2bd
000001e0: e1db ae3d 3cd6 48be 45bf a7bd 5cf5 023e
000001f0: d9a6 9e3c 1481 613c 9377 b93d f7df 0b3e
00000200: 1f56 4c3e 8d2f 103e 0e80 543e 7b2e 993d
00000210: 89be 26bb 67ee 95be f44e 223d 1b8f f6ba
00000220: bd1c 11b9 ee1c dbbd d40a 46be 5700 debd
00000230: ada3 5b3e 1e16 173e f8da fc3d 2928 d6bd
00000240: 32f8 92bc a492 12be 9c3c 5fbe dd6a 14bd
00000250: 2ed2 8f3d acc5 0f3d b0f5 79bd 31d4 81be
00000260: 1665 6bbe 8b4e ecbc 00eb d1bc 8dec 0c3e
00000270: fc51 033e 2f15 98be ca3c 59be e640 3abe
00000280: fe89 7bbd e02c 0f3d 28d0 463e 2623 04be
00000290: 269f 693d 363c 65be cbce bebd b0ad f83c
000002a0: ff30 03be 17ba 32be 99f3 a33d 36ea 083e
000002b0: 7d12 d73d b3f1 73bd 5137 043e 8d1a 653e
000002c0: 6e02 0b3e 366d 3dbd bee0 16be 30f9 91bd
000002d0: be8e 833c 09ed 83bd 7f17 4fbd 0804 a23d
000002e0: 1f23 c4bd 75c0 b0bd 9f8f 89bd ecfc d03d
000002f0: 09c2 503c 1559 47be e71b df3d 15b9 20be
00000300: 20f6 17bd 613b 3abd b57d babd d47a 27be
00000310: 3ecd 603e cdd3 a03d cd94 1abe 3f80 c23d
00000320: c994 7abe 01ed 07be a1a3 abbd 7024 25be
00000330: d6bd 3d3c e958 fcbc ab94 1bbe e2fd 58be
00000340: 1f6c 193d 3314 4f3c 8c15 5a3d d47a 1f3e
00000350: cc1e a63c 7d1a 663e 500e 03be 83af 19be
00000360: 0965 5cbe 90c6 e23d 9416 eabd ed7c cbbc
00000370: 0170 933d 1f9e eebd f065 21be 08ab 3ebe
00000380: a5c8 3a3e 3cbd 1fbe f7d6 fc3c 8803 47be
00000390: 9111 793e 21f1 f13d 8266 06be 0797 86be
000003a0: a5c6 47be a16b 99bd f50e bcbd 2426 873e
000003b0: 8bd8 9e3e 6875 96bd 3a92 9c3d bf05 e6bd
000003c0: 4b82 543e 47a4 b13c 7d84 babc 8e82 6e3d
000003d0: 73be 2d3c 8b67 9bbe d824 bdbc cb8a 6cbd
000003e0: 9c7f 40be 56ef dc3d ee8e 603d 7ff4 0ebe
000003f0: b03a a13c 3128 163e 028f 3c3d aab3 eabd
-0.040184222 -0.18952917 -0.26822552 0.035398643 -0.08558859 0.21666987 0.09643864 -0.07422632
-0.27975595 0.075386286 -0.12879787 -0.04856653 0.13207048 -0.15002473 0.17956737 -0.19341202
-0.0063726343 -0.114534326 -0.21054287 -0.030004963 0.139045 0.21268499 -0.15949188 0.07665795
-0.04804525 0.08885721 -0.009176685 0.19766662 -0.12692936 -0.30687016 0.16342732 -0.12645346
-0.18398538 -0.06642212 0.009562915 -0.12604715 -0.15588783 0.019944053 -0.08866478 -0.12189481
-0.07365011 0.20996273 -0.20396383 -0.03035041 0.0030260882 0.07387333 0.06986859 0.1608835
-0.027928395 0.0427436 -0.014948668 0.0061083543 0.11951197 0.14174269 0.15069517 -0.00010074993
0.04832814 0.00029981948 -0.14776286 0.11387863 0.26729104 -0.20087847 0.10409434 0.08306988
-0.11682785 -0.017467938 0.10015719 0.075607486 0.07053719 -0.04893785 0.013066694 0.034637317
0.13679747 0.19902469 0.12077047 0.04685542 -0.05397323 -0.14346354 -0.14191239 -0.09368708
-0.2612418 -0.04103601 -0.08381411 0.03825972 0.04506603 -0.28483793 0.20868832 -0.14967066
-0.20013528 0.014205646 -0.0377065 0.041965865 0.1702277 -0.18918331 -0.21101514 0.12859915
-0.22358568 -0.083724305 -0.12524743 0.12321797 0.119604096 0.1792801 -0.05148301 -0.019434942
-0.07348614 0.07835852 -0.17716576 0.23173901 0.061695423 -0.027574962 0.051415723 0.10569086
-0.11929804 0.18611912 0.11370657 0.098224476 -0.19567767 0.14686781 0.24104261 -0.09520964
0.08538032 -0.19612974 -0.08190779 0.1278891 0.019366669 0.013763685 0.0905601 0.13659655
0.19954728 0.14080639 0.20751974 0.074795686 -0.0025443158 -0.2928345 0.039626077 -0.0018810959
-0.00013838983 -0.10698877 -0.19340068 -0.108399086 0.21449156 0.14754531 0.123464525 -0.10456879
-0.017940614 -0.14313751 -0.21800464 -0.036234725 0.070225105 0.035100624 -0.06102532 -0.25357202
-0.2298778 -0.028846046 -0.025624752 0.13762112 0.12824243 -0.29703662 -0.21214595 -0.1818882
-0.061410896 0.034954906 0.19415343 -0.12904033 0.05703654 -0.2238625 -0.093167864 0.030356258
-0.1281166 -0.174538 0.08005447 0.13370594 0.10501573 -0.059556674 0.12911727 0.2237341
0.13575146 -0.04624673 -0.1473417 -0.07127607 0.016059276 -0.06441695 -0.050559517 0.07910925
-0.09577011 -0.08630458 -0.06716847 0.10204491 0.012741574 -0.19467576 0.10893994 -0.15695603
-0.037099957 -0.045466784 -0.09106008 -0.16355449 0.21953294 0.07852898 -0.15095825 0.09497117
-0.2447082 -0.13274004 -0.08380819 -0.16127181 0.011580905 -0.030804114 -0.15193431 -0.21190599
0.037456628 0.012639093 0.053243205 0.15574199 0.020278357 0.22471042 -0.12798429 -0.15008359
-0.21522917 0.11073029 -0.11430088 -0.024839843 0.071990974 -0.11651253 -0.15761542 -0.1861993
0.18240602 -0.15599531 0.030864222 -0.19434941 0.24323107 0.1181357 -0.13125041 -0.262871
-0.1950937 -0.07491232 -0.0918254 0.26396286 0.31024584 -0.07346612 0.07645078 -0.11231565
0.20752828 0.021684779 -0.022768253 0.058229975 0.010604489 -0.30352435 -0.023088858 -0.05774955
-0.18798679 0.10787837 0.05482381 -0.13960455 0.019681305 0.1466377 0.04603482 -0.114600495

encoder.weight_hh_l0 f4 [128, 32]
00000000: 735d 3bbd fe89 7f3e bf5e f63d c174 afbc
00000010: fbb9 32be 3bac a4bc 6e7c 263d 1e67 74bd
00000020: 8e71 4bbe 84b5 093e baa6 1ebe d713 953d
00000030: 5d4e bc3d 8a40 4abe fc56 80bc 69f3 ed3d
00000040: 0d4f 55be 04c1 7b3e ff23 b63d 639f 4dbe
00000050: 414f 973c fac8 65bd 7628 2a3e 226b eb3d
00000060: dc50 1bbe c54d a0bd 29f3 3dbe c663 223e
00000070: b823 0b3e 8627 6e3b 7010 a93d 627a 5bbe
00000080: beee 323e 2a2e 5bbe acd9 0f3d e5bf bbbc
00000090: b5d5 febd 3dbe fb3d fa56 bc3d 12a7 02be
000000a0: 2529 72be f7b0 443e fd88 3d3e b366 ee3c
000000b0: 2f8b 20bc 3382 4c3d ada5 b5bd 6e61 793d
000000c0: 7acd 64be f807 2c3e 09d6 a63d 7a84 f93b
000000d0: 888d eabd 7498 3c3e 2ca0 5cbd 0d29 33bd
000000e0: caa3 6abc ad24 af3d c5d7 f43b ac7d 9dbc
000000f0: daf8 4cbe 8dbd 4cbd f851 bc3d 1162 26be
00000100: 264a 1d3d b7bd 57bd 1e5f 263e 48e7 5ebd
00000110: a8c8 833d b245 023c 23fe ecbd 5ed0 45be
00000120: d8ac 963c 16bb 26be 4da5 0cbc 9113 1fbd
00000130: db94 4d3e fd1e 5fbe 96d5 af3b 7d20 a53d
00000140: 3a3c 1f3e 24bc aebc 7e7f 5c3d e687 a63d
00000150: 8385 973d 76f0 9cbc 11af 1f3e 5a23 f2bd
00000160: 63a8 393e 09ad c3bd 572c 0fbd e72f 5c3d
00000170: ed0c 133e 6a86 f3bd c297 0a3e 5d84 87bd
00000180: 8466 473e 288c a2bd ae40 da3c 4c8c 993d
00000190: b7c5 30be 7e79 fe3c f226 f63d ccd0 e0bd
000001a0: d3d5 ac3d 3bcc 4d3e 8c3d 283e cb2b 1abe
000001b0: ca9a 7abd d42e 1a3e c0a8 1a3e c382 61bd
000001c0: caf3 0b3e 4e23 433e 6777 b33d f7be 733d
000001d0: 216b c3bd 8cbf a0bb fcd5 3dbb 388b 7e3d
000001e0: c04e ed3c 782c ce3d 2c45 63bc 5717 e73c
000001f0: e7b8 143e 9871 ffbc fc71 20be dcd6 6dbc
00000200: a926 0e3e 49d0 473e 66ff 90bd 68a3 aebd
00000210: 1358 623e 1dcf 4b3d 77d8 fabc 631a d0bd
00000220: 568f 223e d39d 72bd 63d3 8dbd 1689 0d3e
00000230: 69e5 8b3d acc9 e93d f5ec 0a3c 489e 4cbd
00000240: d4c8 943d 9adb 0a3d a522 423e e300 e7bd
00000250: a143 4abe 4aa7 43bc 5abd 27be a3db 0cbe
00000260: 07e7 0cbe 6906 313d 2ba2 0dbd bab7 afbd
00000270: 4a7f a43e 58ae fdbd 4563 a4bd 3082 3c3e
00000280: 8dbc aa3d 7b18 393e eec2 253e 4f74 f3bb
00000290: feb0 90bd 9273 2d3c 129c c53d d3ab ed3d
000002a0: bb5c ecbd 86f5 693e 3b0a 08bd 606b 313e
000002b0: 295b f03d 21c6 84bd dfe0 0f3e ec6d f2bd
000002c0: a41c 36be d3cd 903e dba0 893e b189 66bd
000002d0: 2bed 05bb 222f e93c d9e1 833e fc90 8ebd
000002e0: 240f 79be 14f0 5d3e 8884 7abe bae7 bf3e
000002f0: fef4 413e 7f8f ddbd 0f7e dfbd 69ac ffbd
00000300: 76e0 40bb f72b 9bbd 2445 2f3e c9c9 383e
00000310: 2061 0abd 9805 05bd 5756 6a3c 64d0 e03d
00000320: c231 84be 3566 183e dd96 12be dd03 c83d
00000330: 731b c8bd 1ca8 7b3e b86f 463d e7b7 0cbd
00000340: 320c 64be 05be e1bc f28d c53d c5c5 a43d
00000350: a81a 82bd 640f d33d 1c41 cc3d dec8 d03c
00000360: e222 72be 0dfa 473e 5474 a7bd 6205 953e
00000370: a891 92bd 57a6 413c 8e64 13bc 3a37 0d3e
00000380: 0053 9d3d ac60 91be 524a 623e 8b63 573e
00000390: 9486 71bd 7001 ecbc 6200 fcbd 549a 52be
000003a0: ee2c 203c 29f2 b13d eeec b53d 2a98 b93d
000003b0: a5ef 7dbd d907 97bd de14 f1bd 523a 7c3e
000003c0: c317 64be 5d5e efbd 1ce9 953b 82ff 00be
000003d0: 850d 27be 0144 b33d 89ce 8dbd cccf 9d3d
000003e0: d9c7 03be 1dbc 573c 61a2 f53d c3f9 953d
000003f0: 1a64 2abe 8c5f 183e 9ae4 02bd 1540 02be
-0.045743417 0.24954984 0.1202979 -0.021417977 -0.17453758 -0.020101657 0.04064601 -0.059668653
-0.19867536 0.13448149 -0.15493289 0.07279175 0.09194634 -0.19751182 -0.015666477 0.116186924
-0.20830937 0.24585348 0.088935845 -0.20080332 0.018470408 -0.05609987 0.16616997 0.11495043
-0.15167564 -0.07827333 -0.1854979 0.15858373 0.13587844 0.0036339476 0.08255088 -0.21433404
0.17473885 -0.21404329 0.035119697 -0.02291865 -0.12443105 0.122921444 0.09196277 -0.12759045
-0.23648508 0.19208132 0.18509288 0.029101705 -0.009798809 0.049928855 -0.08869491 0.06088393
-0.22344008 0.16799915 0.08146293 0.0076146694 -0.11452776 0.18417531 -0.05386369 -0.04374032
-0.014321277 0.08551917 0.007472011 -0.019224964 -0.20016804 -0.049985457 0.09195322 -0.16248347
0.03840079 -0.05267116 0.16247222 -0.054419786 0.064347565 0.007951187 -0.1157191 -0.19317767
0.018392965 -0.16282305 -0.008584333 -0.03883702 0.20076315 -0.21789165 0.0053660376 0.08062837
0.15550318 -0.021329947 0.053832524 0.08131389 0.07398512 -0.01915763 0.15594126 -0.11823149
0.1813064 -0.09554488 -0.034954395 0.05375662 0.143604 -0.11890872 0.13534454 -0.06617043
0.194727 -0.07936889 0.02664217 0.07497463 -0.17262922 0.031063791 0.12019147 -0.10977325
0.08439221 0.20097439 0.16429728 -0.15055768 -0.061182775 0.15056926 0.15103436 -0.055056345
0.13667217 0.19056436 0.087630086 0.05950829 -0.095419176 -0.0049056467 -0.0028966656 0.062144488
0.028968215 0.100670755 -0.013871472 0.028209371 0.1452366 -0.031182095 -0.15668482 -0.0145165585
0.13881935 0.19513048 -0.070799634 -0.08527261 0.2210391 0.049758065 -0.030620797 -0.10161283
0.15874991 -0.059232544 -0.069250844 0.13821825 0.06830866 0.11415419 0.0084793465 -0.049955636
0.072648674 0.033900835 0.18958528 -0.11279466 -0.19752361 -0.01194174 -0.16380826 -0.1375566
-0.13760005 0.043219004 -0.034578484 -0.08579965 0.32128364 -0.12386769 -0.08026747 0.18409038
0.083367445 0.18075745 0.16187641 -0.0074296365 -0.070650086 0.010586636 0.09648909 0.116050385
-0.115411244 0.22847566 -0.03321288 0.17326117 0.117361374 -0.064831026 0.14050625 -0.11837372
-0.17784363 0.2828203 0.26880535 -0.056283657 -0.0020435553 0.028464857 0.25758246 -0.06961247
-0.24322182 0.21673614 -0.24464619 0.3748148 0.18941113 -0.10818385 -0.10912716 -0.124840565
-0.0029430664 -0.07576745 0.17116219 0.18045725 -0.033784032 -0.032476038 0.014302812 0.10977247
-0.25819212 0.14882739 -0.14315362 0.09766362 -0.097708605 0.24575847 0.048446387 -0.03435507
-0.22270277 -0.027556429 0.096462145 0.08045534 -0.063527405 0.1030567 0.09973356 0.025486406
-0.23646119 0.1952898 -0.08176485 0.2910567 -0.07156688 0.011819444 -0.008996142 0.13790599
0.076818466 -0.28394067 0.22098663 0.21034066 -0.058966234 -0.02880928 -0.123047605 -0.20566684
0.009776337 0.086887665 0.088830814 0.09062226 -0.06199612 -0.07374544 -0.11771558 0.24631622
-0.2227469 -0.1168792 0.004574908 -0.12597468 -0.16313751 0.08753205 -0.06924159 0.0770565
-0.12869205 0.013167408 0.11993862 0.07323029 -0.16639748 0.14880198 -0.031956293 -0.12719758

encoder.bias_ih_l0 f4 [128]
00000000: 56e9 e4bc 7b27 1ebd e0a5 233c a594 253e
00000010: cc75 603d 694b eabd c32b 96bb c27e b83a
00000020: 43a3 1f3e 4129 2abd 2866 18bd 48a2 513d
00000030: 24bd 6f3e a150 633e c70e 653d 0c8a 823d
00000040: 7169 2b3e 4291 a13e 53c8 a2bd 63b4 c2bd
00000050: f3d5 2e3e d808 e63d fb24 953c cd68 8f3e
00000060: 7c6e 0c3c eba3 753e e435 cc3b a054 fb3c
00000070: bb6d 9f3d 62dc b13d bdae b3bd 7aea c5bb
00000080: 0fbf 563d b73f af3d 32a6 a73d c27a cc3d
00000090: b7e0 e4bc 46ad 9ebc 7e9a 57bd 7abd 4fbc
000000a0: ee59 7e3e b2d3 1fbb 57dd 34bc 4010 1f3e
000000b0: 3dd4 953b 5510 943e 8bf8 c0bc a8b7 973d
000000c0: 03b6 b13d 883d 5c3e ad36 1a3e 1e29 083e
000000d0: 53b6 de3d 0e1c f43d 6601 a6bd 1a2c c03d
000000e0: ed51 bcbd dbba 0fbd d9e7 91bc f5f6 343e
000000f0: 7d63 8a3e ee9b 103e 4fd9 883e 3b08 8e3d
00000100: a0b3 9f3d 2c6c d9bd 9c0d f53b 3790 933d
00000110: 7887 8e3d 5736 7d3d d04d 2ebc bee6 11be
00000120: cf91 c43c e1f8 863d a8c8 b53d cdb0 d3bd
00000130: c063 073e 06fc a13d a6e2 05be 59a8 003e
00000140: db68 90bb e200 ce3d 9843 fb3d ee2d 01bd
00000150: 6b80 9abd 202c 6b3d 64c8 003d f3d0 b93b
00000160: c419 163d 8205 98bc 27f0 243d c157 513d
00000170: 93aa 8f3b f12e 14be d710 d43d 9032 8f3d
00000180: c33a 083e 3a9b 943e ac1a 243e c9f4 a83d
00000190: 0b35 83bd 7e9c 503d 94be 9cbd 3de3 253e
000001a0: 8c88 36bc c3c7 833e 077d 8ebb e7b6 533e
000001b0: 1fb4 acbb 40bb 853e fa7d b13d b2bc 4d3d
000001c0: f550 543e 43a4 d23d 78dd 95bd efea 26be
000001d0: 27ee ba3d 73e7 383e dce2 a53d 9ae6 4c3e
000001e0: d2f3 4a3e 3394 043e b509 2b3e 744b dc3d
000001f0: 64ff 333e 5814 363d bcf7 77bd 514d 623d
-0.027943294 -0.03861187 0.009988278 0.16169985 0.05479984 -0.114401646 -0.0045828535 0.0014075863
0.15589623 -0.04154325 -0.0372068 0.051180154 0.23411995 0.22198726 0.055922296 0.063739866
0.16739441 0.31556135 -0.07948365 -0.09507062 0.17073803 0.112321556 0.01820611 0.28009644
0.008571263 0.23988311 0.00623201 0.03068 0.07784601 0.08684613 -0.08773563 -0.0060399147
0.0524283 0.085570745 0.08185996 0.09984352 -0.027939184 -0.019369733 -0.05263757 -0.012679452
0.24838993 -0.0024387655 -0.0110391 0.15533543 0.00457242 0.2891871 -0.023556015 0.074080765
0.08677294 0.21507847 0.1505992 0.13296935 0.10874619 0.119194135 -0.081057355 0.09383412
-0.091953136 -0.03509031 -0.017810749 0.17672332 0.2702903 0.14121982 0.26728293 0.069351636
0.077979326 -0.10616335 0.007478429 0.07205241 0.06959432 0.0618194 -0.010638669 -0.14248177
0.023995308 0.06590439 0.08876163 -0.103364564 0.13221645 0.07909398 -0.13074741 0.1256422
-0.004407031 0.10058762 0.12268752 -0.031537943 -0.07544025 0.057415128 0.031441107 0.0056706606
0.036645666 -0.018557314 0.04026809 0.05110908 0.0043843477 -0.14471032 0.103547744 0.06992066
0.13303666 0.29024678 0.160258 0.08249814 -0.064066015 0.050930493 -0.076535374 0.16199966
-0.011140954 0.25738344 -0.0043484005 0.2067524 -0.0052704955 0.26119423 0.08666606 0.050228782
0.20734008 0.10285237 -0.073176324 -0.16300558 0.09127455 0.18057041 0.080999106 0.20009843
0.19819573 0.12947159 0.16702922 0.10756579 0.17577893 0.044452995 -0.060538992 0.055249516

encoder.bias_hh_l0 f4 [128]
00000000: b79e 2bbd de63 413e c341 ce3d 2788 953d
00000010: 6451 a13d 25e1 5ebd a8cc 683d 7c1e 663d
00000020: 1175 9f3d e897 b63d e345 f43d e1d6 bfbd
00000030: 658d a2bd 9396 013e ea44 ca3b 31ba cd3d
00000040: 0929 7dbd d47d 483e a48d 12be 5dc6 11be
00000050: 4ee9 6e3d 95a8 433e 9d48 e83d 0571 203e
00000060: 792b cd3d 7135 923e 27f2 4b3e fb14 923e
00000070: e546 983e 38ff 293e e961 0b3e 4424 e0bd
00000080: a458 123e b7b7 e73d 5f28 503e 0364 6f3b
00000090: 1bbd cd3d 51a5 843e 3151 4f3d c308 c93d
000000a0: fbd1 5f3c 5910 053e fbc4 433c f474 ddbd
000000b0: dfac 563e 0310 4bbc 5fcf 613e e3e1 c43d
000000c0: 7d4e fc3a 2c98 bfbc 4ac3 393d dcdc e1bd
000000d0: 0621 983e 26e1 c23e 7bd0 0e3e c2ee 7b3e
000000e0: 1589 173e c9bd 043e 2e4b cbbd 4056 c53d
000000f0: 9dc3 a33d db6f 4a3e 6a73 d93c 2a25 77bd
00000100: bc27 f93d 3a37 50bd bdc0 653d 815b 263c
00000110: 5d7f 483e d318 a4bd 8b5a 6bbd d2b6 0e3c
00000120: 7f54 4cbd 925d 193d 85f7 003e 4fc0 1f3e
00000130: 7735 29be 75c5 52bd 8caa 403d 98dd 0d3e
00000140: 89da 49be d75f 83bd 541f 543d 6182 cebd
00000150: 6bd4 adbd 6de4 663d 785d 223e ef2e 10be
00000160: 78c8 ccbd 510f e73c bd9a e0bd e4be babd
00000170: 805b e23d 16bf 4cbc 2f02 2e3d 54bd 813d
00000180: f506 8dbc 52bd d53c 3d32 e5bd 0763 ff3d
00000190: 4dfa cb3c da78 e93c 9d39 4d3e 73bd 053e
000001a0: 1604 a13d c41c 5d3e 41d6 b63d 13f8 513e
000001b0: f627 323e 8ada 433e 7ed2 6d3e 8d5d 89bd
000001c0: e291 a53d 8cde e83d 02ed 583d 582c a6bd
000001d0: b4de 9b3d 103d b63b 86be 3e3e 4c80 ddbb
000001e0: a2c1 263e 189c 03bd 6f42 76bd 7339 a73e
000001f0: 73c5 6d3e 09ca 5d3e a031 813e ea18 89bc
-0.04189941 0.18885753 0.10071137 0.073013596 0.07876852 -0.054413933 0.0568358 0.056181416
0.077860005 0.089156926 0.11927392 -0.09367157 -0.07937125 0.12655096 0.006172766 0.10045279
-0.061806712 0.1957925 -0.14311844 -0.14235826 0.058327965 0.19107278 0.11341975 0.15668114
0.100180574 0.28556398 0.19916593 0.28531632 0.29741588 0.16601264 0.13611569 -0.10944417
0.14291626 0.11314338 0.203279 0.0036528117 0.10045835 0.25907376 0.05061454 0.09816124
0.013660903 0.12994517 0.011948819 -0.10813323 0.20964383 -0.012393954 0.22051762 0.09613397
0.0019249466 -0.02338799 0.045352258 -0.11028454 0.29712695 0.380624 0.13946716 0.24602798
0.14798386 0.12963022 -0.09926449 0.096355915 0.07996295 0.19769232 0.026544292 -0.060338177
0.12165782 -0.05083392 0.056092013 0.010153652 0.19579835 -0.08012547 -0.057459395 0.00871058
-0.04988527 0.03744275 0.12594421 0.15600704 -0.16524301 -0.05145784 0.047037646 0.13854063
-0.19712271 -0.064147644 0.05178769 -0.100834616 -0.08487781 0.056370188 0.15855968 -0.14080404
-0.09999174 0.028205546 -0.10967014 -0.09118441 0.110526085 -0.01249673 0.04248255 0.063349396
-0.017215231 0.026091252 -0.11191223 0.1247006 0.024899626 0.02850001 0.20041509 0.1306055
0.078621075 0.21593004 0.089275844 0.20504789 0.17398056 0.19126335 0.23224828 -0.067072965
0.080844656 0.113705724 0.052960403 -0.08113927 0.076108366 0.0055614784 0.18627366 -0.006759679
0.16284803 -0.032131284 -0.06012195 0.32661018 0.23219852 0.21659102 0.25233173 -0.016735513

fc.weight f4 [2, 32]
00000000: d9eb e6bd 99d2 abbd 8c87 d4bd bc54 7b3e
00000010: 2b66 0c3e 2dc7 633d 3577 46be 8e7d 51be
00000020: 52bc 973d 775e c43e 5f67 153e d5be d63d
00000030: b3f8 19be c59e a03e d521 8abd 1df8 fcbd
00000040: 403f 83be 4daa 873d cb6c 183e aa79 4039
00000050: a2da 6cbe 6186 d63a 8d58 c3bd 751d b6bd
00000060: 5575 d5bd 923a 74be 3c45 933e 0072 72be
00000070: a22e d3bd 09ed 963c da84 343e 1738 523e
00000080: e332 353e 7452 6a3e 6af0 a73c 6406 20be
00000090: 28e4 e53c b76e b3be bc99 7b3d d013 e23d
000000a0: d724 16be 2863 79be a5c6 b6bd 73f5 903d
000000b0: 1ab5 2e3d 2869 40be a84f 853e 593d 30be
000000c0: 0762 da3d 24f6 7e3e e527 173e 8774 46be
000000d0: 9d7e 10bd e058 56be c2c0 e23d b339 6e3e
000000e0: 756a a83e 2ab5 4c3e cc48 01be 6955 a93e
000000f0: e26e 863e fe9c 47be 0c92 1fbe 0f52 87be
-0.11275453 -0.08389778 -0.10377416 0.24544042 0.13710849 0.05560987 -0.19381411 -0.20458052
0.07408966 0.3835332 0.14590214 0.10485617 -0.15036277 0.31371132 -0.06744734 -0.12352011
-0.25634193 0.06624279 0.14885251 0.0001835587 -0.23130277 0.0016366952 -0.09538374 -0.08892337
-0.1042277 -0.23850468 0.2876376 -0.236763 -0.10311629 0.018423574 0.17628804 0.20529209
0.17695193 0.22883016 0.02050038 -0.15627438 0.028062895 -0.35045406 0.06142591 0.11038935
-0.14662491 -0.24354231 -0.08924607 0.07078066 0.04265318 -0.18790114 0.26037335 -0.17210902
0.106632285 0.24898583 0.14761312 -0.19380389 -0.035276998 -0.2093234 0.11071922 0.23264198
0.3289372 0.19990984 -0.12625426 0.33072975 0.26256472 -0.19493482 -0.15583056 -0.26429793

fc.bias f4 [2]
00000000: cd11 3bbd 4bbd 58bd
-0.045671273 -0.0529149
