models/Stage1/LSTM_Group_100_600.pt (torch, 30400 bytes, 7 tensors)

embedding.weight f4 [24, 16]
0	0x00000000	0.0
1	0x00000000	0.0
2	0x00000000	0.0
3	0x00000000	0.0
4	0x00000000	0.0
5	0x00000000	0.0
6	0x00000000	0.0
7	0x00000000	0.0
8	0x00000000	0.0
9	0x00000000	0.0
10	0x00000000	0.0
11	0x00000000	0.0
12	0x00000000	0.0
13	0x00000000	0.0
14	0x00000000	0.0
15	0x00000000	0.0
16	0x3ecd6b95	0.4012114
17	0x3f44957f	0.7679061
18	0xbf72d5a6	-0.9485725
19	0x3f8def9c	1.1088748
20	0x4013a271	2.3067896
21	0xbeba3587	-0.36368963
22	0x3f7c65b2	0.98592675
23	0x3ea2a586	0.3176691
24	0x3fc753e4	1.5572476
25	0x3edf505a	0.4361599
26	0x3ed001d9	0.4062641
27	0xbfd2a86e	-1.6457651
28	0xbf09dfda	-0.53857195
29	0x3eb79e17	0.358628
30	0xbe7f3ac5	-0.24924763
31	0xbf628d41	-0.88496786
32	0x3dc07b52	0.093985215
33	0x3f67affc	0.90502906
34	0xbfde4112	-1.7363608
35	0x3efdc6dd	0.49565783
36	0x3f186b54	0.5953877
37	0x3e93b8ce	0.28851932
38	0xbf2a5266	-0.6653198
39	0xbf05e761	-0.5230618
40	0x3eefd8f7	0.4684522
41	0xbf62daea	-0.88615286
42	0xbfd4ca78	-1.6624289
43	0x3f9ec2a7	1.2403153
44	0x3fa0def5	1.2568041
45	0xbf27d6ce	-0.6556214
46	0xbf284173	-0.6572487
47	0x401202f8	2.2814312
48	0xbf4959c1	-0.7865258
49	0x3f53eafe	0.82780445
50	0x3e1313b0	0.14362979
51	0xbf1e3f73	-0.61815566
52	0xbf06c158	-0.5263877
53	0xc005279e	-2.080543
54	0xbe2693dc	-0.16267341
55	0x3f304228	0.68850946
56	0xbe8f5a4d	-0.27998582
57	0x3f44e669	0.7691408
58	0xbe70f450	-0.23530698
59	0xbf851770	-1.0397778
60	0x401ba118	2.4317074
61	0xbf9123c7	-1.1339043
62	0x4001a0f4	2.0254488
63	0x3f38b2ed	0.7214802
64	0x3ed38e20	0.4131937
65	0xbf8d7b01	-1.1053163
66	0x3fa74ba1	1.3069955
67	0x3f9e9d21	1.2391702
68	0xbfc63fc7	-1.5488213
69	0xbec02a9f	-0.37532517
70	0x3ee49a0f	0.44648787
71	0x3f405749	0.75133187
72	0x3f695142	0.91139615
73	0x400de780	2.2172546
74	0x3f4874b6	0.78303087
75	0x3eb67782	0.35638052
76	0x40058842	2.0864415
77	0xbfb1cedf	-1.3891257
78	0xbf94a7ab	-1.1613668
79	0x3ea4c319	0.32180098
80	0x40303363	2.7531364
81	0x3f6b7716	0.91978586
82	0x40027f82	2.0390325
83	0xc006c98f	-2.1060522
84	0x3fede58f	1.8585681
85	0x3fe5f4e2	1.7965357
86	0xbfa7d119	-1.3110687
87	0x40275751	2.6147044
88	0xbddc0804	-0.10743716
89	0xbf1bc50e	-0.60847557
90	0x3f2a0bec	0.6642444
91	0x3e2ea712	0.1705592
92	0x3fd5977d	1.6686856
93	0x3f231cba	0.6371571
94	0xbf98399f	-1.1892585
95	0x3fda3852	1.7048438
96	0x3fb04bfa	1.3773186
97	0x3fcbee73	1.5932144
98	0x3fc08953	1.5041908
99	0x401f5cb4	2.4900331
100	0xbed2ac9c	-0.41147316
101	0xbb91d977	-0.0044509727
102	0xbfa85ce9	-1.3153354
103	0xbf09753e	-0.5369452
104	0x3ec82071	0.3908725
105	0x3fd303e3	1.6485561
106	0x3f3a2c88	0.727242
107	0x3e28ebae	0.16496155
108	0x3e5a6c39	0.21330346
109	0x3fc69261	1.5513421
110	0x3cf4ba3b	0.029873958
111	0x3f996d3e	1.1986463
112	0xbfe13711	-1.759493
113	0x3cb909bd	0.022587651
114	0xbf0a2835	-0.539676
115	0x3fd9effc	1.7026362
116	0x3f5bf373	0.8591835
117	0xbf2752e9	-0.65360886
118	0xbfe28597	-1.7697018
119	0x3fc6cc4e	1.5531099
120	0x3f5ca632	0.86191094
121	0xbe493afe	-0.1965141
122	0x3e2821d7	0.16419159
123	0x3e079daa	0.13243738
124	0x3f4b95a9	0.7952524
125	0x3e11aee5	0.14226873
126	0xbc9cf114	-0.019157924
127	0xbfd15c3c	-1.6356273
128	0x3f876d8d	1.0580307
129	0xbefe45ae	-0.49662536
130	0xbfa778b9	-1.3083717
131	0xbf061ae8	-0.52384806
132	0x3d54403a	0.051819064
133	0xbe833146	-0.2562353
134	0x3f922a5c	1.1419177
135	0x405f3e35	3.4881718
136	0xbeedae18	-0.46421885
137	0x3f25f7ef	0.6483144
138	0xbf4274bf	-0.7595939
139	0x3f324c8b	0.69648045
140	0x3e7d38d8	0.24728715
141	0x3d94566e	0.07243048
142	0x3f7867f0	0.97033596
143	0xbeac2270	-0.33620024
144	0xbfb59bb4	-1.4188142
145	0x3ed9279f	0.4241304
146	0xbfe20383	-1.7657322
147	0xbec8c77d	-0.39214697
148	0xbf7a863e	-0.9786109
149	0x406fbc62	3.745873
150	0xbe8fbf99	-0.28075865
151	0x3f94ab7f	1.1614836
152	0xbeb63024	-0.35583603
153	0x3f8ea0ea	1.1142857
154	0x3f55e1f5	0.8354791
155	0xbf8151a8	-1.0103045
156	0x3fc5daac	1.5457358
157	0x3fda8ab8	1.7073584
158	0x3ed85f0c	0.42260015
159	0x3d76b7e6	0.060233973
160	0xbd0df23b	-0.034654837
161	0xbe34ad19	-0.17644157
162	0xbfb06cb3	-1.3783172
163	0xbf5bcdab	-0.858607
164	0x3f11838f	0.5684137
165	0xbe6ab9cd	-0.2292244
166	0xbffc3f81	-1.970688
167	0x3fb83c7d	1.439346
168	0x3eef2459	0.4670742
169	0x3f793c87	0.9735798
170	0x3fa7abf1	1.3099347
171	0xbf8337ed	-1.0251442
172	0xbfdade28	-1.7099047
173	0x3f211c42	0.62933743
174	0xbf5e9ac4	-0.86954904
175	0x3fbd9532	1.4811156
176	0x3f83ad05	1.0287176
177	0x3e3d9632	0.18514326
178	0xbf705d4b	-0.93892354
179	0x3f57b285	0.84256774
180	0x3f56c421	0.8389302
181	0xbf482484	-0.7818072
182	0x3efdd05d	0.4957303
183	0x3fc3ebf6	1.5306385
184	0xbf12e8a5	-0.5738624
185	0xbffaa9ad	-1.9583031
186	0xbf07d3f2	-0.5305778
187	0x3ecc7c53	0.39938602
188	0x3e8b440f	0.27200362
189	0x3f8c1d8b	1.0946516
190	0xbfccaac6	-1.5989616
191	0xbccbcf54	-0.024879135
192	0x3f74c72a	0.956164
193	0x3e1c1e60	0.15245962
194	0xbfdbca13	-1.7171043
195	0x3f7a3fd2	0.9775363
196	0xbe3182b3	-0.17335014
197	0xbfd6e87c	-1.6789699
198	0xbfb02c2e	-1.3763483
199	0xbf423779	-0.75865895
200	0xbe4aca30	-0.19803691
201	0x3e0cc670	0.13747573
202	0x3d1fab4c	0.03898172
203	0xbf10d554	-0.5657551
204	0x400fa2a5	2.244302
205	0xbf50b350	-0.8152361
206	0x3f4269ab	0.75942487
207	0x3f0d486b	0.55188626
208	0x3ef7e830	0.48419333
209	0xbf49f5d7	-0.78890747
210	0x40031901	2.048401
211	0x3f448c50	0.767766
212	0x403d1338	2.954298
213	0xbf688885	-0.9083331
214	0x402c85ed	2.6956742
215	0x3d618840	0.05506158
216	0xbfa753c0	-1.3072433
217	0x3c58cb38	0.013232045
218	0x3e71c14b	0.23608892
219	0xbea7a3dc	-0.32742202
220	0x3ee1f874	0.44134867
221	0x3e8275e6	0.25480574
222	0x3e4819ca	0.19541088
223	0x3ef904a2	0.48636347
224	0xbcb3aeb1	-0.021933885
225	0xbf0d2f51	-0.55150324
226	0x3f372d90	0.715539
227	0x3ea9f085	0.33191314
228	0xbfd9a6e1	-1.7004052
229	0xbb1c901b	-0.0023889604
230	0x3da96fc3	0.0827327
231	0xbd1ac59f	-0.037786122
232	0xbeea3ea0	-0.45750904
233	0xbfc25bf9	-1.5184318
234	0xbd6fb775	-0.058524568
235	0xbf80583d	-1.0026928
236	0x3f57cf6b	0.8430087
237	0x40367aa5	2.8512356
238	0x3d80ffa6	0.06298761
239	0xbe4584ed	-0.19288988
240	0x3f41e457	0.75739044
241	0xbfb188a4	-1.3869824
242	0x3e2480bc	0.16064733
243	0x3fd5a452	1.6690772
244	0x3c7a0b18	0.015261434
245	0x3ec74602	0.389206
246	0xbfbcf717	-1.4762906
247	0x3f3a1c82	0.7269975
248	0xc01b4907	-2.4263322
249	0xbeeb32db	-0.45937237
250	0xbec904f9	-0.39261606
251	0x3f276e16	0.6540235
252	0xbfe8b557	-1.818034
253	0x3f86b1fe	1.0523069
254	0x3f85066d	1.0392586
255	0x3e98b145	0.29822746

encoder.weight_ih_l0 f4 [128, 16]
0	0x3e042fd1	0.12908866
1	0xbd666001	-0.0562439
2	0x3c2ec3b3	0.0106667755
3	0x3d0e7878	0.034782857
4	0x3eee3e39	0.46531847
5	0xbec95568	-0.39322972
6	0xbe97f781	-0.29681018
7	0xbe8821fd	-0.2658843
8	0xbf81d349	-1.0142604
9	0xbec674a6	-0.3876087
10	0xbe275d1e	-0.16344115
11	0x3e4f75d1	0.20259787
12	0xbf373250	-0.71561146
13	0x3e1ade15	0.1512378
14	0xbf4bf078	-0.796638
15	0xbea78115	-0.3271567
16	0x3ef822dc	0.48464096
17	0xbf355ae9	-0.7084184
18	0x3d07abf2	0.033122964
19	0x3ebc76a5	0.3680927
20	0x3ec8c551	0.3921304
21	0xbe2132a8	-0.1574198
22	0xbbcc7ca2	-0.0062404433
23	0xbf016540	-0.5054512
24	0xbf011250	-0.5041857
25	0xbdbb487a	-0.09144683
26	0xbed17402	-0.4090882
27	0xbf20e347	-0.628468
28	0xbde25563	-0.110514425
29	0x3f18233f	0.5942878
30	0x3e73e2e5	0.23817022
31	0xbe6bf4a4	-0.23042542
32	0x3d8526d5	0.06501547
33	0xbdf346d6	-0.11878745
34	0x3f3d2df4	0.73898244
35	0xbebbe106	-0.36695117
36	0xbe950a12	-0.29109246
37	0x3e4e9b64	0.20176464
38	0xbf9f91b5	-1.2466341
39	0x3ee24b38	0.44198012
40	0xbe8dc7bf	-0.27691457
41	0x3f0a6c25	0.54071265
42	0x3f1210b2	0.57056725
43	0x3e3b345f	0.18281697
44	0xbe4a14d0	-0.19734502
45	0xbe61f780	-0.2206707
46	0x3cf769fb	0.030201903
47	0x3e7da2c9	0.24769129
48	0xbea381b0	-0.3193488
49	0x3dee6e17	0.11642092
50	0xbe961ed0	-0.29320383
51	0xbe4ed621	-0.20198871
52	0xbe8ca62b	-0.27470526
53	0xbe1f9817	-0.15585361
54	0xbe4ab160	-0.19794226
55	0xbef2d9c8	-0.4743178
56	0x3e858372	0.26076847
57	0x3e1372fb	0.1439933
58	0xbc02a734	-0.007974435
59	0xbca1db64	-0.019757934
60	0x3dd5dd0f	0.10442554
61	0xbd0b04fe	-0.033940308
62	0xbdefd53d	-0.11710594
63	0xbe5c7b0e	-0.21531317
64	0x3f231eac	0.63718677
65	0x3ea727ff	0.32647702
66	0xbe11c45c	-0.14235061
67	0xbe408d8d	-0.18803997
68	0xbe229d21	-0.15880252
69	0x3fbf1238	1.4927435
70	0xbef09cc9	-0.46994618
71	0xbe80111f	-0.25013062
72	0x3eebc108	0.4604571
73	0xbf81ea4d	-1.0149628
74	0xbf817c84	-1.0116124
75	0xbe06b74c	-0.1315586
76	0xbecef223	-0.4041911
77	0x3f33e1dd	0.70266515
78	0xbf0421ac	-0.5161388
79	0x3f3b7435	0.7322419
80	0xbc266217	-0.010155222
81	0xbecb9ad8	-0.39766574
82	0xbd84fcf6	-0.06493561
83	0xbec4f6a1	-0.38469413
84	0xbf13ad8c	-0.57686687
85	0xbebc9415	-0.36831728
86	0xbd8f2866	-0.06990127
87	0x3f1deb7b	0.6168744
88	0xbf847b1b	-1.0350069
89	0xbe3d6a2a	-0.1849753
90	0xbed6a687	-0.41923925
91	0x3eab2b55	0.33431497
92	0xbe0abea0	-0.1354928
93	0x3edb18a1	0.42792228
94	0xbe42a0b9	-0.19006623
95	0xbe32bac3	-0.17454056
96	0x3f135d84	0.5756457
97	0x3e392b8b	0.18083017
98	0xbf2ed728	-0.6829705
99	0xbf345d78	-0.7045512
100	0x3e9e4879	0.30914667
101	0x3e7a4c21	0.24443103
102	0xbe8ea411	-0.27859548
103	0xbea79aee	-0.3273539
104	0x3cc6acf6	0.024252396
105	0xbcc3eda9	-0.023917036
106	0xbe719c09	-0.23594679
107	0xbe83fbb3	-0.2577797
108	0xbca0fdaa	-0.019652206
109	0xbea5f634	-0.324144
110	0xbcd78982	-0.026310686
111	0x3efd4050	0.4946313
112	0x3fa4770e	1.2848833
113	0xbef27962	-0.47358233
114	0xbea8492f	-0.32868335
115	0xbebecb91	-0.37264684
116	0xbe4e5bf0	-0.20152259
117	0xbdfec3b2	-0.1243967
118	0xbf07cc48	-0.53046083
119	0x3ebd6ee8	0.36998677
120	0xbeea01d4	-0.4570452
121	0x3ec5fbbe	0.38668627
122	0x3dba3e7b	0.090939485
123	0xbe9a192b	-0.30097327
124	0x3ebc427e	0.3676948
125	0x3f6d1197	0.92604965
126	0xbf4884bb	-0.7832753
127	0x3f1f6b31	0.62272936
128	0x3e9630d8	0.2933414
129	0x3ef7610e	0.48316234
130	0x3e5c89a7	0.21536885
131	0xbe9b7f8d	-0.3037075
132	0x3e157d99	0.14598693
133	0x3e15d823	0.14633231
134	0x3dc565f1	0.096385844
135	0x3ea98a4a	0.3311332
136	0xbdca16fe	-0.09867667
137	0xbdac580c	-0.08415231
138	0x3e2c58bd	0.16830726
139	0xbe8aabd1	-0.2708421
140	0x3f06069f	0.52353853
141	0x3ed8547a	0.4225195
142	0x3d763e3a	0.060117938
143	0xbdf12330	-0.117742896
144	0x3ef320ef	0.47486064
145	0xbdcafba3	-0.09911277
146	0x3f0b87ae	0.54503906
147	0xbdc340c5	-0.09533838
148	0xbea86be4	-0.32894814
149	0x3eec7dfa	0.46189862
150	0xbeb95203	-0.36195382
151	0xbe3aab17	-0.18229328
152	0xbf0f9edd	-0.5610178
153	0x3e00f96b	0.12595145
154	0xbd21ae82	-0.039473064
155	0x3d36b589	0.04460672
156	0xbea141e0	-0.3149557
157	0x3f35da25	0.7103599
158	0x3ed3bcbd	0.41354933
159	0x3e597cfc	0.21239084
160	0x3f26c32b	0.6514155
161	0xbd39e6bc	-0.04538606
162	0xbe4edbd6	-0.20201048
163	0xbf7d3cc5	-0.9892085
164	0x3ee646d2	0.44975907
165	0x3eaab6c5	0.33342567
166	0x3d7a48d6	0.061104618
167	0x3f3cff2b	0.73826855
168	0x3c90e696	0.017688077
169	0x3f81e77e	1.0148771
170	0xbe311a50	-0.17295194
171	0xbeea06f7	-0.4570844
172	0xbf6dd293	-0.92899436
173	0xbef5b3ab	-0.47988638
174	0x3ee60e65	0.44932857
175	0xbdb7c274	-0.08972636
176	0x3e1d7bf2	0.15379313
177	0x3e81a35f	0.25319955
178	0xbb7df1d9	-0.0038748889
179	0xbdb70748	-0.08936936
180	0x3edad7c0	0.4274273
181	0x3e89eb1b	0.26937184
182	0x3efa53b1	0.48891976
183	0x3e260125	0.16211374
184	0xbda7d0e7	-0.08194142
185	0xbea8a734	-0.32940066
186	0xbfbadea2	-1.4599192
187	0x3e008180	0.125494
188	0xbf1b8c27	-0.6076073
189	0xbe6a6bc1	-0.22892667
190	0x3e1ef8cf	0.155246
191	0xbc6419b7	-0.0139221465
192	0xbf88d507	-1.0690011
193	0x3f4df422	0.8045064
194	0x3eb0626c	0.3445009
195	0xbf9bb53d	-1.2164685
196	0xbd82880b	-0.063736044
197	0x3f5d0b84	0.86345696
198	0x3e0d5a24	0.13803917
199	0xbec8be5b	-0.3920773
200	0x3f187634	0.59555364
201	0xbee66be6	-0.45004195
202	0xbe98929d	-0.29799357
203	0x3f3c6a77	0.7359995
204	0x3ed2dbfc	0.4118346
205	0xbe9ea237	-0.30983135
206	0x3db5d7e2	0.08879067
207	0x3e7dbc4b	0.2477886
208	0xbd9d332e	-0.076757774
209	0x3ea5f888	0.32416177
210	0x3d0b8da3	0.034070622
211	0xbf42eba9	-0.7614084
212	0xbf151fb3	-0.58251494
213	0xbe60d801	-0.21957399
214	0x3eb6f021	0.3573008
215	0xbc7e75e9	-0.015531042
216	0xbe906c57	-0.28207657
217	0x3e28ec84	0.16496474
218	0x3e1c88f9	0.15286626
219	0x3d567ac4	0.052363172
220	0x3f30e544	0.6909983
221	0x3e814fa3	0.2525607
222	0xbf0a6c57	-0.54071563
223	0x3dcd0fb5	0.100127615
224	0xbdd3163d	-0.10306976
225	0xbef993b7	-0.4874551
226	0x3f250d80	0.64473724
227	0x3d804018	0.06262225
228	0x3d75c8c9	0.060005937
229	0x3f01b4ca	0.5066649
230	0x3e878308	0.26467156
231	0x3d472261	0.04861677
232	0xbeecdef6	-0.46263856
233	0x3e31ea60	0.17374563
234	0x3f151576	0.5823587
235	0xbe380305	-0.17969902
236	0xbf18cea5	-0.59690315
237	0x3efe61da	0.4968403
238	0x3db0fa92	0.086415425
239	0xbf649e7b	-0.8930432
240	0x3f7d1918	0.98866415
241	0xbdc7be01	-0.09753037
242	0xbf0c0df2	-0.5470878
243	0xbe39e19b	-0.18152468
244	0xbe35b3d1	-0.17744376
245	0xbd9c46cd	-0.07630692
246	0xbebc6bf9	-0.36801127
247	0xbe1f1426	-0.1553503
248	0xbe4952eb	-0.19660537
249	0xbef0eb07	-0.47054312
250	0xbed4739d	-0.41494456
251	0x3f2cec3c	0.67547965
252	0xbd596f3e	-0.053084604
253	0x3f212d1e	0.6295947
254	0xbec18305	-0.37795272
255	0xbf0a60fd	-0.5405424

encoder.weight_hh_l0 f4 [128, 32]
0	0xbca1c93e	-0.01974928
1	0xbc379ee6	-0.011207318
2	0x3f181016	0.59399545
3	0xbfcdd092	-1.6079276
4	0x3fa4647f	1.2843169
5	0xbe6398dc	-0.2222628
6	0xbd81fb13	-0.06346717
7	0x3f5dbbf0	0.86614895
8	0xbfc1cc57	-1.5140485
9	0x3f07aa70	0.5299444
10	0xbe0d2046	-0.13781843
11	0xbebb6f41	-0.36608317
12	0xbeae61b7	-0.34058926
13	0xbeed6134	-0.46363223
14	0xbe0ccca2	-0.13749936
15	0x3f833225	1.0249678
16	0x3dfce2bf	0.12347936
17	0x3f0c621f	0.5483722
18	0xbfdaadb2	-1.7084258
19	0xbe064cf7	-0.13115297
20	0x3de22a3c	0.11043212
21	0xbf6f21f4	-0.93411183
22	0x3dc082af	0.09399926
23	0xbf8296b9	-1.0202247
24	0x3dc58aa9	0.09645588
25	0x3eef4f97	0.4674041
26	0xbf7e8691	-0.9942408
27	0x3fbb563d	1.4635693
28	0xbf5ec50d	-0.87019426
29	0xbf03f8c4	-0.5155146
30	0x3f892aaf	1.0716151
31	0x3f734e38	0.9504123
32	0xbe12f143	-0.14349847
33	0xbe77b211	-0.2418902
34	0xbfd69b86	-1.6766212
35	0xbeae98ea	-0.3410104
36	0xbdf9a8e1	-0.12190414
37	0xbd8c0344	-0.0683656
38	0x3d0da6cc	0.034582898
39	0xbf03c424	-0.5147116
40	0xbe59950c	-0.21248263
41	0x3f0f9832	0.56091607
42	0x3eaf70aa	0.34265643
43	0x3e3636f8	0.17794406
44	0x3e053d3a	0.13011637
45	0xbc6c969b	-0.014440204
46	0xbf37190e	-0.71522605
47	0xbdbb5f29	-0.0914901
48	0xbdbee391	-0.093207486
49	0x3f59f94a	0.8514601
50	0x3e865b76	0.26241654
51	0xbebbd284	-0.36684048
52	0x3f1024b2	0.5630599
53	0x3ea918dc	0.3302678
54	0x3d79dbaa	0.061000504
55	0x3ea04058	0.3129909
56	0x3cb1e4bd	0.021715516
57	0x3f058249	0.52151924
58	0xbf19bf6f	-0.6005773
59	0x3ec8f7c1	0.3925152
60	0xbed2aa81	-0.4114571
61	0x3dd0f008	0.10202032
62	0xbea49ef0	-0.3215251
63	0x3e58efe4	0.21185261
64	0xbf32a5d0	-0.6978426
65	0x3f403011	0.75073344
66	0xbf88814d	-1.066446
67	0x3debc8ff	0.11512946
68	0xbf2f025f	-0.68362993
69	0xbc6708c8	-0.014101215
70	0xbd4ff200	-0.0507679
71	0xbdcce179	-0.10003943
72	0xbd2a7310	-0.04161364
73	0x3f36014e	0.7109574
74	0x3d52b40c	0.051441237
75	0x3f4b6794	0.7945492
76	0xbe93c33d	-0.28859892
77	0xbf280517	-0.65632766
78	0xbda59b8e	-0.0808631
79	0xbed84ea8	-0.4224751
80	0xbe1ac397	-0.15113674
81	0xbe7bdd12	-0.2459605
82	0x3e880bfa	0.26571637
83	0xbf84252c	-1.0323844
84	0xbe72f19a	-0.23724976
85	0x3e3f6b4e	0.18693277
86	0x3e181bab	0.14854304
87	0x3f5cec4e	0.8629807
88	0xbea39628	-0.31950498
89	0x3ea897e2	0.32928377
90	0x3eb7d207	0.35902426
91	0x3df47df6	0.11938088
92	0x3e72bb8c	0.23704356
93	0x3ee19327	0.4405758
94	0xbca36ae2	-0.019948427
95	0xbfaa2264	-1.3291745
96	0xbe914d80	-0.2837944
97	0x3b155de7	0.0022791566
98	0xbea4220c	-0.32057226
99	0x3fc4679a	1.5344117
100	0xbeb5d8e6	-0.35517043
101	0x3e8b795d	0.2724103
102	0x3f0a8b06	0.5411838
103	0xbf1a0dac	-0.6017711
104	0xbea61f36	-0.32445687
105	0x3e59f8a1	0.2128625
106	0xbf20c7dc	-0.6280496
107	0x3eea811e	0.45801634
108	0x3f830c37	1.0238103
109	0x3a85ccd8	0.0010208143
110	0xbebf6ffa	-0.3739012
111	0x3d81f0d6	0.06344764
112	0x3ec55b23	0.38546094
113	0xbf68f73a	-0.9100224
114	0xbe69eaa2	-0.22843412
115	0x3f52ed3e	0.8239325
116	0x3ef61f11	0.48070577
117	0xbe82b96c	-0.2553209
118	0x3f0b2eb0	0.54368114
119	0x3fa78705	1.308808
120	0xbdfdec58	-0.123985946
121	0xbd94e825	-0.072708406
122	0x3e238fc6	0.15972814
123	0xbe907fe8	-0.28222585
124	0xbf329a1c	-0.697664
125	0x3ec6479f	0.38726518
126	0xbe761614	-0.2403186
127	0xbf0b691d	-0.54457265
128	0x3ed589ea	0.41706783
129	0xbddf5efa	-0.10906787
130	0xbfa4fd7d	-1.2889858
131	0xbe843207	-0.25819418
132	0xbf52d490	-0.82355595
133	0xbe6833c2	-0.22675994
134	0xbe9b1875	-0.30292097
135	0xbc8fa48f	-0.017534522
136	0x3e5dcb08	0.21659482
137	0xbf77992f	-0.96718115
138	0x3ee8870a	0.45415527
139	0x3ea823bd	0.32839766
140	0x3fa7ace9	1.3099643
141	0xbe1a3c78	-0.1506213
142	0xbe6da8e3	-0.23208956
143	0x3f04a689	0.5181661
144	0x3e5c3cc4	0.21507555
145	0x3e31b2d4	0.17353374
146	0xbe2cc140	-0.16870594
147	0xbf14f29d	-0.581827
148	0x3f6bce71	0.9211188
149	0xbe5bc198	-0.21460569
150	0xbf95f6e0	-1.1715965
151	0xbe596d71	-0.21233155
152	0xbe9288ce	-0.2862
153	0x3ef54a8d	0.4790844
154	0xbecf16b8	-0.4044702
155	0x3fe7c1ad	1.810598
156	0xbf819f17	-1.0126675
157	0x3e55fe77	0.20897852
158	0x3c0a6185	0.008446102
159	0xbef4a7b6	-0.47784203
160	0xbebbe3c8	-0.3669722
161	0xbd4d72a4	-0.050158158
162	0x3e1866f2	0.1488302
163	0xbe29b0fe	-0.16571423
164	0x3d473c20	0.048641324
165	0x3e9f4002	0.31103522
166	0xbf536a69	-0.82584244
167	0x3f128dde	0.5724772
168	0x3cc0f50d	0.02355435
169	0x3f53d215	0.82742435
170	0xbf1e5b5d	-0.6185816
171	0x3e91e2ae	0.28493255
172	0xbe1173b6	-0.14204296
173	0x3f53bfee	0.82714736
174	0x3f86d18c	1.0532699
175	0xbe20144d	-0.15632744
176	0xbe00db99	-0.1258377
177	0xbf66f420	-0.90216255
178	0x3e550d40	0.20805836
179	0x3fa2913e	1.2700574
180	0xbf260e9c	-0.6486604
181	0xbedc1ba0	-0.42989826
182	0xbf9c633d	-1.2217785
183	0x3ec76370	0.38943052
184	0x3ec4b88d	0.3842205
185	0x3fc34544	1.5255513
186	0x3da1d970	0.07902801
187	0x3e3220ab	0.17395274
188	0x3fe2d0e7	1.7720002
189	0x3e789b2c	0.24277943
190	0xbe49473b	-0.19656079
191	0x401237e6	2.2846618
192	0x3e4d0c0e	0.2002413
193	0xbf8c0e72	-1.0941908
194	0xbdf68712	-0.12037481
195	0xbdbe5a7c	-0.09294602
196	0x3f14ae73	0.5807869
197	0x3f1a2056	0.6020559
198	0xbc7fde89	-0.015617021
199	0xbe583dbc	-0.211173
200	0xbf048075	-0.5175851
201	0x3ec4b4e6	0.38419265
202	0x3e2aeb5b	0.16691343
203	0x3f850bba	1.0394204
204	0xbec28264	-0.37990105
205	0xbd1d826d	-0.03845446
206	0x3eabf15f	0.3358259
207	0xbe7ba59a	-0.2457489
208	0xbf2b05cf	-0.6680574
209	0x3d4802d9	0.04883084
210	0x3e391256	0.18073401
211	0x3f03f9cd	0.5155304
212	0x3f88fcef	1.0702189
213	0xbecc36fd	-0.39885703
214	0xbeb63775	-0.35589185
215	0x3f4536de	0.77036846
216	0x3f269858	0.6507621
217	0x3db446ce	0.088025674
218	0xbdf62915	-0.120195545
219	0x3e9cfc7c	0.3066138
220	0xbdc1d450	-0.094643235
221	0x3eb46911	0.3523641
222	0x3d1455ae	0.036214523
223	0xbfb6ff8a	-1.4296734
224	0x3fa530a9	1.2905475
225	0xbde0d082	-0.1097727
226	0xbdfe242c	-0.12409243
227	0x3cd47c57	0.025938196
228	0x3ea5435e	0.3227796
229	0x3f3668b8	0.7125354
230	0x3e40ee3c	0.18840879
231	0xbf316b55	-0.693044
232	0xbf0efc92	-0.5585414
233	0x40277dde	2.6170573
234	0x3f8bf352	1.093363
235	0xbebc46b6	-0.36772698
236	0x3f3e9f51	0.7446185
237	0x3f7055c3	0.9388086
238	0x3f3b66db	0.7320382
239	0x3f2c7265	0.6736205
240	0x3d0bbf3d	0.034117926
241	0xbf64ee79	-0.8942638
242	0xbeca1fc8	-0.39477372
243	0xbe9d3381	-0.30703357
244	0x3f11f72f	0.570178
245	0xc00b549b	-2.177039
246	0x3e6f0eb7	0.23345457
247	0xbe369c58	-0.17833078
248	0xbf86cc58	-1.0531111
249	0x3ef9dfdf	0.48803613
250	0xbfb91c7d	-1.4461819
251	0x3e88c427	0.26712152
252	0xbf28f8f9	-0.660049
253	0x3e6b4673	0.22976093
254	0x3f21fa06	0.6327213
255	0xbf653fe0	-0.8955059

encoder.bias_ih_l0 f4 [128]
0	0x3e00ac36	0.12565693
1	0xbe943d15	-0.28952852
2	0x3d65612e	0.05600088
3	0xbf025069	-0.50903946
4	0xbef94025	-0.4868175
5	0xbea72c25	-0.32650867
6	0xbf2e5ed9	-0.68113476
7	0x3e862ece	0.26207584
8	0xbf89b292	-1.075762
9	0xbf19d23e	-0.6008643
10	0x3ecef43b	0.40420708
11	0x3eae458d	0.34037438
12	0x3defb692	0.117047444
13	0xbd5987e8	-0.053108126
14	0xbe6c5e30	-0.23082805
15	0xbe6fade4	-0.23406178
16	0x3e970c53	0.2950159
17	0x3eee0abb	0.46492562
18	0xbf0be87d	-0.54651624
19	0xbf08bd81	-0.5341416
20	0xbd3a5be9	-0.04549781
21	0xbf17e54b	-0.5933425
22	0xbe70beb6	-0.2351025
23	0xbe1bc90b	-0.1521341
24	0x3db35f5c	0.08758423
25	0xbf4fafc2	-0.8112756
26	0xbeaaf4e0	-0.3338995
27	0x3d35f8a2	0.044426568
28	0x3e08b6cb	0.1335098
29	0x3ecfa040	0.4055195
30	0x3f47a31d	0.77983266
31	0x3d5c35a6	0.0537621
32	0x3f4ab7d1	0.7918673
33	0x3f0df805	0.5545657
34	0x3db09726	0.08622579
35	0x3f7c3247	0.9851422
36	0x3eb1fcb9	0.34763125
37	0x3ce6c4e4	0.028170057
38	0x3f3a1dfa	0.7270199
39	0x3df73284	0.12070182
40	0x3f2419b2	0.6410171
41	0x3f0267a0	0.5093937
42	0xbe1a8d5f	-0.15092991
43	0x3e78cd65	0.24297102
44	0x3eb9ad73	0.36265144
45	0x3e0741a8	0.1320864
46	0x3f090c7a	0.5353466
47	0x3e95a209	0.29225186
48	0x3f26165f	0.64877886
49	0x3ef93a58	0.48677325
50	0x3ef26357	0.47341415
51	0x3f5feeed	0.87473947
52	0x3f20a16f	0.6274633
53	0x3f2629da	0.6490761
54	0x3ded970e	0.11601077
55	0x3e220d6c	0.15825433
56	0x3f30895d	0.689596
57	0xbdc89ecc	-0.09795913
58	0x3efd6e0e	0.49498028
59	0xbd70b4a0	-0.058766007
60	0xbe9880e2	-0.2978583
61	0xbe9aff6b	-0.30272993
62	0xbc898382	-0.01678634
63	0x3edeeb39	0.43538836
64	0xbe8e90da	-0.27844888
65	0x3e93404e	0.28759998
66	0x3e05fd8e	0.13085005
67	0x3dc71dd0	0.09722483
68	0x3e4c5a99	0.19956435
69	0xbe95ad1b	-0.29233631
70	0x3cd3da8f	0.025861053
71	0x3d67b31b	0.056567293
72	0xbcb61acd	-0.022229576
73	0xbe0ec3f9	-0.13941945
74	0x3dbedb7d	0.09319208
75	0xbf1d6e88	-0.6149678
76	0xbf11faf5	-0.57023555
77	0x3e91646e	0.28396934
78	0xbe9d694a	-0.30744392
79	0xbe2b8597	-0.16750179
80	0x3dda3dd6	0.106563255
81	0xbdceaf98	-0.100920856
82	0xbd67c515	-0.056584436
83	0xbd865e14	-0.06560913
84	0xbed31a8a	-0.41231185
85	0x3e5c6fc5	0.21527012
86	0xbd8e6041	-0.06951953
87	0xbec287ec	-0.37994325
88	0xbe183147	-0.14862548
89	0xbe254464	-0.1613937
90	0xbe7a64ac	-0.24452466
91	0xbe9043ba	-0.2817667
92	0x3c4cedea	0.012507895
93	0xbe483a54	-0.195535
94	0xbc75f228	-0.015011348
95	0x3e49174c	0.19637793
96	0x3ec83d74	0.39109385
97	0x3e491572	0.19637087
98	0x3f052852	0.5201465
99	0x3efbada9	0.4915593
100	0xbd9eb5a0	-0.07749486
101	0x3d590447	0.052982595
102	0x3ebde054	0.3708521
103	0xbbd6f2b4	-0.006559694
104	0x3e846b65	0.25863186
105	0x3be51b38	0.00699177
106	0x3e982d55	0.29722086
107	0x3ea4b5c5	0.3216993
108	0x3f11b891	0.5692225
109	0x3e27c72b	0.1638457
110	0x3e8730a6	0.26404303
111	0x3d1343d2	0.03595335
112	0x3ea2935c	0.3175305
113	0x3ed5808e	0.41699642
114	0xbe239c57	-0.15977608
115	0x3e2de65d	0.16982408
116	0x3f53f28e	0.82791984
117	0x3df15ca8	0.11785251
118	0x3ea8460d	0.32865945
119	0x3e165c5a	0.14683667
120	0x3e0d5786	0.13802919
121	0xbe240e27	-0.16021024
122	0xbe285bb1	-0.16441227
123	0x3ea9dc1d	0.33175746
124	0xbde6dc36	-0.11272471
125	0x3d823e20	0.06359506
126	0xbda397af	-0.07987916
127	0x3e002d18	0.12517202

encoder.bias_hh_l0 f4 [128]
0	0xbdb5354a	-0.08848055
1	0xbee68c9c	-0.4502915
2	0x3d905c18	0.070488155
3	0xbf0cb550	-0.5496416
4	0xbe4eb8fb	-0.20187752
5	0xbe310cbc	-0.17290014
6	0xbf3b6d64	-0.7321379
7	0x3ec4a405	0.38406387
8	0xbf8e679a	-1.1125367
9	0xbebce4b5	-0.3689324
10	0x3e9142c0	0.2837124
11	0x3dffe7de	0.12495397
12	0x3e47c6eb	0.19509475
13	0xbe27c116	-0.1638225
14	0xbe78aeb4	-0.24285394
15	0xbec18385	-0.37795654
16	0x3d6cf6f8	0.057852715
17	0x3efbce7e	0.4918098
18	0xbf0408df	-0.51576036
19	0xbf43f0fd	-0.76539594
20	0x3e20a08b	0.15686242
21	0xbeec2689	-0.4612315
22	0xbe8a4898	-0.2700851
23	0xbdcd723f	-0.10031556
24	0xbdb8e981	-0.09028912
25	0xbf35cc25	-0.71014625
26	0xbea6f3b9	-0.3260782
27	0x3d0c04d6	0.0341843
28	0x3e3b1324	0.1826902
29	0x3ed5fc9e	0.41794294
30	0x3f7966bf	0.97422403
31	0x3b350748	0.0027622748
32	0x3f2571c6	0.6462673
33	0x3e969333	0.2940918
34	0x3e827ecb	0.2548736
35	0x3f542359	0.82866436
36	0x3e7c7ddd	0.24657388
37	0xbe082c83	-0.1329823
38	0x3f25d25b	0.647741
39	0x3dac8576	0.08423893
40	0x3f5645f2	0.8370048
41	0x3f07df18	0.5307479
42	0x3d4b848f	0.049686965
43	0x3e4d5b7e	0.20054433
44	0x3e6814e8	0.22664225
45	0x3e9f6455	0.31131235
46	0x3edd492b	0.43219885
47	0x3f02dbce	0.51116645
48	0x3efa564d	0.48893967
49	0x3e70c92e	0.23514244
50	0x3f2b4c36	0.66913164
51	0x3f596ebd	0.849346
52	0x3f268ef0	0.65061855
53	0x3f3c66bc	0.7359426
54	0x3e402732	0.18764952
55	0xbdbcbe28	-0.09215957
56	0x3f20ea4c	0.6285751
57	0xbdcec1c9	-0.10095555
58	0x3ea8907b	0.3292273
59	0xbe3a1603	-0.1817246
60	0xbe809222	-0.2511149
61	0xbea4cf69	-0.3218949
62	0x3ba7df9d	0.0051230923
63	0x3eeffe7b	0.4687384
64	0xbd4b3d87	-0.049619224
65	0x3ee7be91	0.45262578
66	0x3ea820ff	0.32837674
67	0x3e236cf8	0.15959537
68	0xbc7e8c7d	-0.015536425
69	0xbea405e6	-0.3203575
70	0x3d89dd7b	0.06731697
71	0x3d6fb77f	0.058524605
72	0x3e2a879f	0.16653298
73	0xbe5d5081	-0.21612741
74	0xbdea314a	-0.114351824
75	0xbef0b17c	-0.4701041
76	0xbefac071	-0.48974946
77	0x3ea48029	0.32129028
78	0xbe8804e5	-0.26566234
79	0xbdb101f0	-0.08642948
80	0x3d6b6ae5	0.05747499
81	0x3d9c4c37	0.07631724
82	0xbe6fb3e3	-0.23408465
83	0xbe41af36	-0.18914494
84	0xbe92fccd	-0.28708497
85	0x3eee5198	0.46546626
86	0xbd87bb9a	-0.06627579
87	0xbe55465b	-0.2082762
88	0xbd00c1bc	-0.03143476
89	0x3e1c1ca0	0.15245295
90	0xbc329353	-0.010899383
91	0xbecade21	-0.39622596
92	0x3d22ee26	0.039777897
93	0xbef499b1	-0.47773507
94	0xbda70205	-0.08154682
95	0x3e80237b	0.2502707
96	0x3ebe256b	0.37137923
97	0xbd73c2c3	-0.05951191
98	0x3ec4319f	0.38319108
99	0x3e15e5ad	0.14638396
100	0xbd42523e	-0.047441714
101	0x3de9cd63	0.114161275
102	0x3ec48e36	0.38389748
103	0xbd86c6c2	-0.06580879
104	0x3e8035f2	0.25041157
105	0x3e46941c	0.19392437
106	0x3e7c4bf3	0.24638347
107	0x3ebc7941	0.3681126
108	0x3f08f8aa	0.5350443
109	0x3e39297c	0.18082231
110	0x3e94fbdb	0.290984
111	0xbdcaae53	-0.09896531
112	0x3ea86493	0.32889232
113	0x3f16dbb1	0.5892897
114	0x3d7853e9	0.060626898
115	0x3d0b2b12	0.033976622
116	0x3f3ba940	0.7330513
117	0x3c5be864	0.013422105
118	0x3e1682b6	0.146983
119	0x3e677166	0.22601852
120	0x3ec0d307	0.37661
121	0x3dded936	0.108812734
122	0x3d2f1145	0.04274108
123	0x3edb1cdf	0.42795464
124	0x3dd3708f	0.10324203
125	0x3da78331	0.0817932
126	0xbe5f4fd3	-0.21807794
127	0x3deb59b7	0.11491721

fc.weight f4 [2, 32]
0	0x3e253197	0.16132198
1	0xbdce3369	-0.100683995
2	0xbf2e8bda	-0.68182147
3	0x3f138d42	0.5763742
4	0x3f9b9a2c	1.2156425
5	0x3ce79dd4	0.0282735
6	0x3d3fa1c2	0.046785124
7	0x3da5e2a0	0.08099866
8	0x3ebede18	0.3727882
9	0x3f03ac45	0.5143474
10	0xbed244e1	-0.41068175
11	0xbcd72a4e	-0.02626529
12	0x3d728c1d	0.059215654
13	0xbea2e042	-0.3181172
14	0x3fdef048	1.7417078
15	0x3e5e0338	0.21680915
16	0xbeae833e	-0.34084505
17	0xbe062753	-0.13100938
18	0xbc1c82aa	-0.009552637
19	0x3fded37e	1.7408292
20	0xbdbc746e	-0.09201895
21	0xbf1a8a24	-0.60367036
22	0xbe151333	-0.14558105
23	0xbeb42b57	-0.35189316
24	0x3e1c35b9	0.15254869
25	0x3f0a569a	0.54038393
26	0xbfbf169b	-1.4928774
27	0x3e9a5b92	0.30147988
28	0xbfc05d13	-1.5028404
29	0xbec261e9	-0.37965325
30	0x3e501602	0.20320895
31	0x3f8a9d08	1.0829172
32	0xbdabe959	-0.08394117
33	0xbdcc9988	-0.09990221
34	0x3f5ee4f8	0.8706813
35	0xbf265384	-0.64971185
36	0xbfab73a7	-1.3394669
37	0xbd6868b4	-0.056740478
38	0x3e6e149b	0.23250048
39	0x3e18aff9	0.14910878
40	0xbeca6a3d	-0.39534178
41	0xbee2da64	-0.44307244
42	0x3f0b97fe	0.54528797
43	0xbdd21624	-0.10258129
44	0xbdb4bffb	-0.0882568
45	0x3e6bb4e1	0.23018219
46	0xbffe0647	-1.9845666
47	0xbeaf47af	-0.34234378
48	0x3d89970c	0.06718263
49	0x3e7ceb6b	0.2469918
50	0xbe177988	-0.14792454
51	0xbfdf07ad	-1.7424217
52	0xbd98bf6f	-0.07458388
53	0x3f19b4d8	0.6004157
54	0x3e26f0a5	0.16302736
55	0x3e8417c5	0.25799385
56	0xbefed9b2	-0.49775463
57	0xbf218adc	-0.6310251
58	0x3fd3eb51	1.6556188
59	0xbe40973e	-0.18807694
60	0x3fc10839	1.5080634
61	0x3e526914	0.20547897
62	0xbe6005e7	-0.21877252
63	0xbf92f57f	-1.148117

fc.bias f4 [2]
0	0xbc1cc9b6	-0.009569576
1	0xbd623ac8	-0.05523184
